node {
  name: "global_step/Initializer/zeros"
  op: "Const"
  attr {
    key: "_class"
    value {
      list {
        s: "loc:@global_step"
      }
    }
  }
  attr {
    key: "_output_shapes"
    value {
      list {
        shape {
        }
      }
    }
  }
  attr {
    key: "dtype"
    value {
      type: DT_INT64
    }
  }
  attr {
    key: "value"
    value {
      tensor {
        dtype: DT_INT64
        tensor_shape {
        }
        int64_val: 0
      }
    }
  }
}
node {
  name: "global_step"
  op: "VarHandleOp"
  attr {
    key: "_class"
    value {
      list {
        s: "loc:@global_step"
      }
    }
  }
  attr {
    key: "_output_shapes"
    value {
      list {
        shape {
        }
      }
    }
  }
  attr {
    key: "allowed_devices"
    value {
      list {
      }
    }
  }
  attr {
    key: "container"
    value {
      s: ""
    }
  }
  attr {
    key: "dtype"
    value {
      type: DT_INT64
    }
  }
  attr {
    key: "shape"
    value {
      shape {
      }
    }
  }
  attr {
    key: "shared_name"
    value {
      s: "global_step"
    }
  }
}
node {
  name: "global_step/IsInitialized/VarIsInitializedOp"
  op: "VarIsInitializedOp"
  input: "global_step"
  attr {
    key: "_output_shapes"
    value {
      list {
        shape {
        }
      }
    }
  }
}
node {
  name: "global_step/Assign"
  op: "AssignVariableOp"
  input: "global_step"
  input: "global_step/Initializer/zeros"
  attr {
    key: "dtype"
    value {
      type: DT_INT64
    }
  }
}
node {
  name: "global_step/Read/ReadVariableOp"
  op: "ReadVariableOp"
  input: "global_step"
  attr {
    key: "_output_shapes"
    value {
      list {
        shape {
        }
      }
    }
  }
  attr {
    key: "dtype"
    value {
      type: DT_INT64
    }
  }
}
node {
  name: "global_step/VarIsInitializedOp"
  op: "VarIsInitializedOp"
  input: "global_step"
  attr {
    key: "_output_shapes"
    value {
      list {
        shape {
        }
      }
    }
  }
}
node {
  name: "global_step/cond"
  op: "If"
  input: "global_step/VarIsInitializedOp"
  input: "global_step"
  input: "global_step/Initializer/zeros"
  attr {
    key: "Tcond"
    value {
      type: DT_BOOL
    }
  }
  attr {
    key: "Tin"
    value {
      list {
        type: DT_RESOURCE
        type: DT_INT64
      }
    }
  }
  attr {
    key: "Tout"
    value {
      list {
        type: DT_INT64
      }
    }
  }
  attr {
    key: "_lower_using_switch_merge"
    value {
      b: true
    }
  }
  attr {
    key: "_output_shapes"
    value {
      list {
        shape {
        }
      }
    }
  }
  attr {
    key: "_read_only_resource_inputs"
    value {
      list {
        i: 1
      }
    }
  }
  attr {
    key: "else_branch"
    value {
      func {
        name: "global_step_cond_false_1140"
      }
    }
  }
  attr {
    key: "output_shapes"
    value {
      list {
        shape {
        }
      }
    }
  }
  attr {
    key: "then_branch"
    value {
      func {
        name: "global_step_cond_true_1139"
      }
    }
  }
}
node {
  name: "global_step/cond/Identity"
  op: "Identity"
  input: "global_step/cond"
  attr {
    key: "T"
    value {
      type: DT_INT64
    }
  }
  attr {
    key: "_output_shapes"
    value {
      list {
        shape {
        }
      }
    }
  }
}
node {
  name: "global_step/add/y"
  op: "Const"
  attr {
    key: "_output_shapes"
    value {
      list {
        shape {
        }
      }
    }
  }
  attr {
    key: "dtype"
    value {
      type: DT_INT64
    }
  }
  attr {
    key: "value"
    value {
      tensor {
        dtype: DT_INT64
        tensor_shape {
        }
        int64_val: 0
      }
    }
  }
}
node {
  name: "global_step/add"
  op: "AddV2"
  input: "global_step/cond/Identity"
  input: "global_step/add/y"
  attr {
    key: "T"
    value {
      type: DT_INT64
    }
  }
  attr {
    key: "_output_shapes"
    value {
      list {
        shape {
        }
      }
    }
  }
}
node {
  name: "normalize_element/component_0"
  op: "Const"
  device: "/device:CPU:0"
  attr {
    key: "_output_shapes"
    value {
      list {
        shape {
          dim {
            size: 1
          }
        }
      }
    }
  }
  attr {
    key: "dtype"
    value {
      type: DT_STRING
    }
  }
  attr {
    key: "value"
    value {
      tensor {
        dtype: DT_STRING
        tensor_shape {
          dim {
            size: 1
          }
        }
        string_val: "./datasets/iris_training.csv"
      }
    }
  }
}
node {
  name: "TensorSliceDataset"
  op: "TensorSliceDataset"
  input: "normalize_element/component_0"
  device: "/device:CPU:0"
  attr {
    key: "Toutput_types"
    value {
      list {
        type: DT_STRING
      }
    }
  }
  attr {
    key: "_output_shapes"
    value {
      list {
        shape {
        }
      }
    }
  }
  attr {
    key: "output_shapes"
    value {
      list {
        shape {
        }
      }
    }
  }
}
node {
  name: "buffer_size"
  op: "Const"
  device: "/device:CPU:0"
  attr {
    key: "_output_shapes"
    value {
      list {
        shape {
        }
      }
    }
  }
  attr {
    key: "dtype"
    value {
      type: DT_INT64
    }
  }
  attr {
    key: "value"
    value {
      tensor {
        dtype: DT_INT64
        tensor_shape {
        }
        int64_val: 1
      }
    }
  }
}
node {
  name: "seed"
  op: "Const"
  device: "/device:CPU:0"
  attr {
    key: "_output_shapes"
    value {
      list {
        shape {
        }
      }
    }
  }
  attr {
    key: "dtype"
    value {
      type: DT_INT64
    }
  }
  attr {
    key: "value"
    value {
      tensor {
        dtype: DT_INT64
        tensor_shape {
        }
        int64_val: 0
      }
    }
  }
}
node {
  name: "seed2"
  op: "Const"
  device: "/device:CPU:0"
  attr {
    key: "_output_shapes"
    value {
      list {
        shape {
        }
      }
    }
  }
  attr {
    key: "dtype"
    value {
      type: DT_INT64
    }
  }
  attr {
    key: "value"
    value {
      tensor {
        dtype: DT_INT64
        tensor_shape {
        }
        int64_val: 0
      }
    }
  }
}
node {
  name: "ShuffleDataset"
  op: "ShuffleDataset"
  input: "TensorSliceDataset"
  input: "buffer_size"
  input: "seed"
  input: "seed2"
  device: "/device:CPU:0"
  attr {
    key: "_output_shapes"
    value {
      list {
        shape {
        }
      }
    }
  }
  attr {
    key: "output_shapes"
    value {
      list {
        shape {
        }
      }
    }
  }
  attr {
    key: "output_types"
    value {
      list {
        type: DT_STRING
      }
    }
  }
  attr {
    key: "reshuffle_each_iteration"
    value {
      b: true
    }
  }
}
node {
  name: "Const"
  op: "Const"
  device: "/device:CPU:0"
  attr {
    key: "_output_shapes"
    value {
      list {
        shape {
          dim {
            size: 1
          }
        }
      }
    }
  }
  attr {
    key: "dtype"
    value {
      type: DT_FLOAT
    }
  }
  attr {
    key: "value"
    value {
      tensor {
        dtype: DT_FLOAT
        tensor_shape {
          dim {
            size: 1
          }
        }
        float_val: 0.0
      }
    }
  }
}
node {
  name: "Const_1"
  op: "Const"
  device: "/device:CPU:0"
  attr {
    key: "_output_shapes"
    value {
      list {
        shape {
          dim {
            size: 1
          }
        }
      }
    }
  }
  attr {
    key: "dtype"
    value {
      type: DT_FLOAT
    }
  }
  attr {
    key: "value"
    value {
      tensor {
        dtype: DT_FLOAT
        tensor_shape {
          dim {
            size: 1
          }
        }
        float_val: 0.0
      }
    }
  }
}
node {
  name: "Const_2"
  op: "Const"
  device: "/device:CPU:0"
  attr {
    key: "_output_shapes"
    value {
      list {
        shape {
          dim {
            size: 1
          }
        }
      }
    }
  }
  attr {
    key: "dtype"
    value {
      type: DT_FLOAT
    }
  }
  attr {
    key: "value"
    value {
      tensor {
        dtype: DT_FLOAT
        tensor_shape {
          dim {
            size: 1
          }
        }
        float_val: 0.0
      }
    }
  }
}
node {
  name: "Const_3"
  op: "Const"
  device: "/device:CPU:0"
  attr {
    key: "_output_shapes"
    value {
      list {
        shape {
          dim {
            size: 1
          }
        }
      }
    }
  }
  attr {
    key: "dtype"
    value {
      type: DT_FLOAT
    }
  }
  attr {
    key: "value"
    value {
      tensor {
        dtype: DT_FLOAT
        tensor_shape {
          dim {
            size: 1
          }
        }
        float_val: 0.0
      }
    }
  }
}
node {
  name: "Const_4"
  op: "Const"
  device: "/device:CPU:0"
  attr {
    key: "_output_shapes"
    value {
      list {
        shape {
          dim {
            size: 1
          }
        }
      }
    }
  }
  attr {
    key: "dtype"
    value {
      type: DT_INT32
    }
  }
  attr {
    key: "value"
    value {
      tensor {
        dtype: DT_INT32
        tensor_shape {
          dim {
            size: 1
          }
        }
        int_val: 0
      }
    }
  }
}
node {
  name: "cycle_length"
  op: "Const"
  device: "/device:CPU:0"
  attr {
    key: "_output_shapes"
    value {
      list {
        shape {
        }
      }
    }
  }
  attr {
    key: "dtype"
    value {
      type: DT_INT64
    }
  }
  attr {
    key: "value"
    value {
      tensor {
        dtype: DT_INT64
        tensor_shape {
        }
        int64_val: 1
      }
    }
  }
}
node {
  name: "block_length"
  op: "Const"
  device: "/device:CPU:0"
  attr {
    key: "_output_shapes"
    value {
      list {
        shape {
        }
      }
    }
  }
  attr {
    key: "dtype"
    value {
      type: DT_INT64
    }
  }
  attr {
    key: "value"
    value {
      tensor {
        dtype: DT_INT64
        tensor_shape {
        }
        int64_val: 1
      }
    }
  }
}
node {
  name: "buffer_output_elements"
  op: "Const"
  device: "/device:CPU:0"
  attr {
    key: "_output_shapes"
    value {
      list {
        shape {
        }
      }
    }
  }
  attr {
    key: "dtype"
    value {
      type: DT_INT64
    }
  }
  attr {
    key: "value"
    value {
      tensor {
        dtype: DT_INT64
        tensor_shape {
        }
        int64_val: 2
      }
    }
  }
}
node {
  name: "prefetch_input_elements"
  op: "Const"
  device: "/device:CPU:0"
  attr {
    key: "_output_shapes"
    value {
      list {
        shape {
        }
      }
    }
  }
  attr {
    key: "dtype"
    value {
      type: DT_INT64
    }
  }
  attr {
    key: "value"
    value {
      tensor {
        dtype: DT_INT64
        tensor_shape {
        }
        int64_val: 2
      }
    }
  }
}
node {
  name: "LegacyParallelInterleaveDatasetV2"
  op: "LegacyParallelInterleaveDatasetV2"
  input: "ShuffleDataset"
  input: "Const"
  input: "Const_1"
  input: "Const_2"
  input: "Const_3"
  input: "Const_4"
  input: "cycle_length"
  input: "block_length"
  input: "buffer_output_elements"
  input: "prefetch_input_elements"
  device: "/device:CPU:0"
  attr {
    key: "Targuments"
    value {
      list {
        type: DT_FLOAT
        type: DT_FLOAT
        type: DT_FLOAT
        type: DT_FLOAT
        type: DT_INT32
      }
    }
  }
  attr {
    key: "_output_shapes"
    value {
      list {
        shape {
        }
      }
    }
  }
  attr {
    key: "deterministic"
    value {
      s: "true"
    }
  }
  attr {
    key: "f"
    value {
      func {
        name: "__inference_tf_data_experimental_parallel_interleave_filename_to_dataset_1180"
        attr {
          key: "_tf_data_function"
          value {
            b: true
          }
        }
      }
    }
  }
  attr {
    key: "output_shapes"
    value {
      list {
        shape {
        }
        shape {
        }
        shape {
        }
        shape {
        }
        shape {
        }
      }
    }
  }
  attr {
    key: "output_types"
    value {
      list {
        type: DT_FLOAT
        type: DT_FLOAT
        type: DT_FLOAT
        type: DT_FLOAT
        type: DT_INT32
      }
    }
  }
}
node {
  name: "buffer_size_1"
  op: "Const"
  device: "/device:CPU:0"
  attr {
    key: "_output_shapes"
    value {
      list {
        shape {
        }
      }
    }
  }
  attr {
    key: "dtype"
    value {
      type: DT_INT64
    }
  }
  attr {
    key: "value"
    value {
      tensor {
        dtype: DT_INT64
        tensor_shape {
        }
        int64_val: 10000
      }
    }
  }
}
node {
  name: "seed_1"
  op: "Const"
  device: "/device:CPU:0"
  attr {
    key: "_output_shapes"
    value {
      list {
        shape {
        }
      }
    }
  }
  attr {
    key: "dtype"
    value {
      type: DT_INT64
    }
  }
  attr {
    key: "value"
    value {
      tensor {
        dtype: DT_INT64
        tensor_shape {
        }
        int64_val: 0
      }
    }
  }
}
node {
  name: "seed2_1"
  op: "Const"
  device: "/device:CPU:0"
  attr {
    key: "_output_shapes"
    value {
      list {
        shape {
        }
      }
    }
  }
  attr {
    key: "dtype"
    value {
      type: DT_INT64
    }
  }
  attr {
    key: "value"
    value {
      tensor {
        dtype: DT_INT64
        tensor_shape {
        }
        int64_val: 0
      }
    }
  }
}
node {
  name: "ShuffleDataset_1"
  op: "ShuffleDataset"
  input: "LegacyParallelInterleaveDatasetV2"
  input: "buffer_size_1"
  input: "seed_1"
  input: "seed2_1"
  device: "/device:CPU:0"
  attr {
    key: "_output_shapes"
    value {
      list {
        shape {
        }
      }
    }
  }
  attr {
    key: "output_shapes"
    value {
      list {
        shape {
        }
        shape {
        }
        shape {
        }
        shape {
        }
        shape {
        }
      }
    }
  }
  attr {
    key: "output_types"
    value {
      list {
        type: DT_FLOAT
        type: DT_FLOAT
        type: DT_FLOAT
        type: DT_FLOAT
        type: DT_INT32
      }
    }
  }
  attr {
    key: "reshuffle_each_iteration"
    value {
      b: true
    }
  }
}
node {
  name: "batch_size"
  op: "Const"
  device: "/device:CPU:0"
  attr {
    key: "_output_shapes"
    value {
      list {
        shape {
        }
      }
    }
  }
  attr {
    key: "dtype"
    value {
      type: DT_INT64
    }
  }
  attr {
    key: "value"
    value {
      tensor {
        dtype: DT_INT64
        tensor_shape {
        }
        int64_val: 32
      }
    }
  }
}
node {
  name: "drop_remainder"
  op: "Const"
  device: "/device:CPU:0"
  attr {
    key: "_output_shapes"
    value {
      list {
        shape {
        }
      }
    }
  }
  attr {
    key: "dtype"
    value {
      type: DT_BOOL
    }
  }
  attr {
    key: "value"
    value {
      tensor {
        dtype: DT_BOOL
        tensor_shape {
        }
        bool_val: false
      }
    }
  }
}
node {
  name: "BatchDatasetV2"
  op: "BatchDatasetV2"
  input: "ShuffleDataset_1"
  input: "batch_size"
  input: "drop_remainder"
  device: "/device:CPU:0"
  attr {
    key: "_output_shapes"
    value {
      list {
        shape {
        }
      }
    }
  }
  attr {
    key: "output_shapes"
    value {
      list {
        shape {
          dim {
            size: -1
          }
        }
        shape {
          dim {
            size: -1
          }
        }
        shape {
          dim {
            size: -1
          }
        }
        shape {
          dim {
            size: -1
          }
        }
        shape {
          dim {
            size: -1
          }
        }
      }
    }
  }
  attr {
    key: "output_types"
    value {
      list {
        type: DT_FLOAT
        type: DT_FLOAT
        type: DT_FLOAT
        type: DT_FLOAT
        type: DT_INT32
      }
    }
  }
  attr {
    key: "parallel_copy"
    value {
      b: false
    }
  }
}
node {
  name: "MapDataset"
  op: "MapDataset"
  input: "BatchDatasetV2"
  device: "/device:CPU:0"
  attr {
    key: "Targuments"
    value {
      list {
      }
    }
  }
  attr {
    key: "_output_shapes"
    value {
      list {
        shape {
        }
      }
    }
  }
  attr {
    key: "f"
    value {
      func {
        name: "__inference_Dataset_map_map_fn_1204"
        attr {
          key: "_tf_data_function"
          value {
            b: true
          }
        }
      }
    }
  }
  attr {
    key: "output_shapes"
    value {
      list {
        shape {
          dim {
            size: -1
          }
        }
        shape {
          dim {
            size: -1
          }
        }
        shape {
          dim {
            size: -1
          }
        }
        shape {
          dim {
            size: -1
          }
        }
        shape {
          dim {
            size: -1
          }
        }
      }
    }
  }
  attr {
    key: "output_types"
    value {
      list {
        type: DT_FLOAT
        type: DT_FLOAT
        type: DT_FLOAT
        type: DT_FLOAT
        type: DT_INT32
      }
    }
  }
  attr {
    key: "preserve_cardinality"
    value {
      b: false
    }
  }
  attr {
    key: "use_inter_op_parallelism"
    value {
      b: false
    }
  }
}
node {
  name: "buffer_size_2"
  op: "Const"
  device: "/device:CPU:0"
  attr {
    key: "_output_shapes"
    value {
      list {
        shape {
        }
      }
    }
  }
  attr {
    key: "dtype"
    value {
      type: DT_INT64
    }
  }
  attr {
    key: "value"
    value {
      tensor {
        dtype: DT_INT64
        tensor_shape {
        }
        int64_val: -1
      }
    }
  }
}
node {
  name: "PrefetchDataset"
  op: "PrefetchDataset"
  input: "MapDataset"
  input: "buffer_size_2"
  device: "/device:CPU:0"
  attr {
    key: "_output_shapes"
    value {
      list {
        shape {
        }
      }
    }
  }
  attr {
    key: "legacy_autotune"
    value {
      b: true
    }
  }
  attr {
    key: "output_shapes"
    value {
      list {
        shape {
          dim {
            size: -1
          }
        }
        shape {
          dim {
            size: -1
          }
        }
        shape {
          dim {
            size: -1
          }
        }
        shape {
          dim {
            size: -1
          }
        }
        shape {
          dim {
            size: -1
          }
        }
      }
    }
  }
  attr {
    key: "output_types"
    value {
      list {
        type: DT_FLOAT
        type: DT_FLOAT
        type: DT_FLOAT
        type: DT_FLOAT
        type: DT_INT32
      }
    }
  }
  attr {
    key: "slack_period"
    value {
      i: 0
    }
  }
}
node {
  name: "MapDataset_1"
  op: "MapDataset"
  input: "PrefetchDataset"
  device: "/device:CPU:0"
  attr {
    key: "Targuments"
    value {
      list {
      }
    }
  }
  attr {
    key: "_output_shapes"
    value {
      list {
        shape {
        }
      }
    }
  }
  attr {
    key: "f"
    value {
      func {
        name: "__inference_Dataset_map_pack_features_vector_1217"
        attr {
          key: "_tf_data_function"
          value {
            b: true
          }
        }
      }
    }
  }
  attr {
    key: "output_shapes"
    value {
      list {
        shape {
          dim {
            size: -1
          }
          dim {
            size: 4
          }
        }
        shape {
          dim {
            size: -1
          }
        }
      }
    }
  }
  attr {
    key: "output_types"
    value {
      list {
        type: DT_FLOAT
        type: DT_INT32
      }
    }
  }
  attr {
    key: "preserve_cardinality"
    value {
      b: true
    }
  }
  attr {
    key: "use_inter_op_parallelism"
    value {
      b: true
    }
  }
}
node {
  name: "count"
  op: "Const"
  device: "/device:CPU:0"
  attr {
    key: "_output_shapes"
    value {
      list {
        shape {
        }
      }
    }
  }
  attr {
    key: "dtype"
    value {
      type: DT_INT64
    }
  }
  attr {
    key: "value"
    value {
      tensor {
        dtype: DT_INT64
        tensor_shape {
        }
        int64_val: -1
      }
    }
  }
}
node {
  name: "RepeatDataset"
  op: "RepeatDataset"
  input: "MapDataset_1"
  input: "count"
  device: "/device:CPU:0"
  attr {
    key: "_output_shapes"
    value {
      list {
        shape {
        }
      }
    }
  }
  attr {
    key: "output_shapes"
    value {
      list {
        shape {
          dim {
            size: -1
          }
          dim {
            size: 4
          }
        }
        shape {
          dim {
            size: -1
          }
        }
      }
    }
  }
  attr {
    key: "output_types"
    value {
      list {
        type: DT_FLOAT
        type: DT_INT32
      }
    }
  }
}
node {
  name: "optimizations"
  op: "Const"
  attr {
    key: "_output_shapes"
    value {
      list {
        shape {
          dim {
            size: 3
          }
        }
      }
    }
  }
  attr {
    key: "dtype"
    value {
      type: DT_STRING
    }
  }
  attr {
    key: "value"
    value {
      tensor {
        dtype: DT_STRING
        tensor_shape {
          dim {
            size: 3
          }
        }
        string_val: "map_and_batch_fusion"
        string_val: "noop_elimination"
        string_val: "shuffle_and_repeat_fusion"
      }
    }
  }
}
node {
  name: "OptimizeDataset"
  op: "OptimizeDataset"
  input: "RepeatDataset"
  input: "optimizations"
  attr {
    key: "_output_shapes"
    value {
      list {
        shape {
        }
      }
    }
  }
  attr {
    key: "optimization_configs"
    value {
      list {
      }
    }
  }
  attr {
    key: "output_shapes"
    value {
      list {
        shape {
          dim {
            size: -1
          }
          dim {
            size: 4
          }
        }
        shape {
          dim {
            size: -1
          }
        }
      }
    }
  }
  attr {
    key: "output_types"
    value {
      list {
        type: DT_FLOAT
        type: DT_INT32
      }
    }
  }
}
node {
  name: "ModelDataset"
  op: "ModelDataset"
  input: "OptimizeDataset"
  attr {
    key: "_output_shapes"
    value {
      list {
        shape {
        }
      }
    }
  }
  attr {
    key: "algorithm"
    value {
      i: 0
    }
  }
  attr {
    key: "cpu_budget"
    value {
      i: 0
    }
  }
  attr {
    key: "output_shapes"
    value {
      list {
        shape {
          dim {
            size: -1
          }
          dim {
            size: 4
          }
        }
        shape {
          dim {
            size: -1
          }
        }
      }
    }
  }
  attr {
    key: "output_types"
    value {
      list {
        type: DT_FLOAT
        type: DT_INT32
      }
    }
  }
}
node {
  name: "IteratorV2"
  op: "IteratorV2"
  attr {
    key: "_output_shapes"
    value {
      list {
        shape {
        }
      }
    }
  }
  attr {
    key: "container"
    value {
      s: ""
    }
  }
  attr {
    key: "output_shapes"
    value {
      list {
        shape {
          dim {
            size: -1
          }
          dim {
            size: 4
          }
        }
        shape {
          dim {
            size: -1
          }
        }
      }
    }
  }
  attr {
    key: "output_types"
    value {
      list {
        type: DT_FLOAT
        type: DT_INT32
      }
    }
  }
  attr {
    key: "shared_name"
    value {
      s: ""
    }
  }
}
node {
  name: "MakeIterator"
  op: "MakeIterator"
  input: "ModelDataset"
  input: "IteratorV2"
  attr {
    key: "_class"
    value {
      list {
        s: "loc:@IteratorV2"
      }
    }
  }
}
node {
  name: "IteratorToStringHandle"
  op: "IteratorToStringHandle"
  input: "IteratorV2"
  attr {
    key: "_output_shapes"
    value {
      list {
        shape {
        }
      }
    }
  }
}
node {
  name: "IteratorGetNext"
  op: "IteratorGetNext"
  input: "IteratorV2"
  attr {
    key: "_output_shapes"
    value {
      list {
        shape {
          dim {
            size: -1
          }
          dim {
            size: 4
          }
        }
        shape {
          dim {
            size: -1
          }
        }
      }
    }
  }
  attr {
    key: "output_shapes"
    value {
      list {
        shape {
          dim {
            size: -1
          }
          dim {
            size: 4
          }
        }
        shape {
          dim {
            size: -1
          }
        }
      }
    }
  }
  attr {
    key: "output_types"
    value {
      list {
        type: DT_FLOAT
        type: DT_INT32
      }
    }
  }
}
node {
  name: "dense_4/kernel/Initializer/random_uniform/shape"
  op: "Const"
  attr {
    key: "_class"
    value {
      list {
        s: "loc:@dense_4/kernel"
      }
    }
  }
  attr {
    key: "_output_shapes"
    value {
      list {
        shape {
          dim {
            size: 2
          }
        }
      }
    }
  }
  attr {
    key: "dtype"
    value {
      type: DT_INT32
    }
  }
  attr {
    key: "value"
    value {
      tensor {
        dtype: DT_INT32
        tensor_shape {
          dim {
            size: 2
          }
        }
        tensor_content: "\004\000\000\000\020\000\000\000"
      }
    }
  }
}
node {
  name: "dense_4/kernel/Initializer/random_uniform/min"
  op: "Const"
  attr {
    key: "_class"
    value {
      list {
        s: "loc:@dense_4/kernel"
      }
    }
  }
  attr {
    key: "_output_shapes"
    value {
      list {
        shape {
        }
      }
    }
  }
  attr {
    key: "dtype"
    value {
      type: DT_FLOAT
    }
  }
  attr {
    key: "value"
    value {
      tensor {
        dtype: DT_FLOAT
        tensor_shape {
        }
        float_val: -0.547722578048706
      }
    }
  }
}
node {
  name: "dense_4/kernel/Initializer/random_uniform/max"
  op: "Const"
  attr {
    key: "_class"
    value {
      list {
        s: "loc:@dense_4/kernel"
      }
    }
  }
  attr {
    key: "_output_shapes"
    value {
      list {
        shape {
        }
      }
    }
  }
  attr {
    key: "dtype"
    value {
      type: DT_FLOAT
    }
  }
  attr {
    key: "value"
    value {
      tensor {
        dtype: DT_FLOAT
        tensor_shape {
        }
        float_val: 0.547722578048706
      }
    }
  }
}
node {
  name: "dense_4/kernel/Initializer/random_uniform/RandomUniform"
  op: "RandomUniform"
  input: "dense_4/kernel/Initializer/random_uniform/shape"
  attr {
    key: "T"
    value {
      type: DT_INT32
    }
  }
  attr {
    key: "_class"
    value {
      list {
        s: "loc:@dense_4/kernel"
      }
    }
  }
  attr {
    key: "_output_shapes"
    value {
      list {
        shape {
          dim {
            size: 4
          }
          dim {
            size: 16
          }
        }
      }
    }
  }
  attr {
    key: "dtype"
    value {
      type: DT_FLOAT
    }
  }
  attr {
    key: "seed"
    value {
      i: 0
    }
  }
  attr {
    key: "seed2"
    value {
      i: 0
    }
  }
}
node {
  name: "dense_4/kernel/Initializer/random_uniform/sub"
  op: "Sub"
  input: "dense_4/kernel/Initializer/random_uniform/max"
  input: "dense_4/kernel/Initializer/random_uniform/min"
  attr {
    key: "T"
    value {
      type: DT_FLOAT
    }
  }
  attr {
    key: "_class"
    value {
      list {
        s: "loc:@dense_4/kernel"
      }
    }
  }
  attr {
    key: "_output_shapes"
    value {
      list {
        shape {
        }
      }
    }
  }
}
node {
  name: "dense_4/kernel/Initializer/random_uniform/mul"
  op: "Mul"
  input: "dense_4/kernel/Initializer/random_uniform/RandomUniform"
  input: "dense_4/kernel/Initializer/random_uniform/sub"
  attr {
    key: "T"
    value {
      type: DT_FLOAT
    }
  }
  attr {
    key: "_class"
    value {
      list {
        s: "loc:@dense_4/kernel"
      }
    }
  }
  attr {
    key: "_output_shapes"
    value {
      list {
        shape {
          dim {
            size: 4
          }
          dim {
            size: 16
          }
        }
      }
    }
  }
}
node {
  name: "dense_4/kernel/Initializer/random_uniform"
  op: "Add"
  input: "dense_4/kernel/Initializer/random_uniform/mul"
  input: "dense_4/kernel/Initializer/random_uniform/min"
  attr {
    key: "T"
    value {
      type: DT_FLOAT
    }
  }
  attr {
    key: "_class"
    value {
      list {
        s: "loc:@dense_4/kernel"
      }
    }
  }
  attr {
    key: "_output_shapes"
    value {
      list {
        shape {
          dim {
            size: 4
          }
          dim {
            size: 16
          }
        }
      }
    }
  }
}
node {
  name: "dense_4/kernel"
  op: "VarHandleOp"
  attr {
    key: "_class"
    value {
      list {
        s: "loc:@dense_4/kernel"
      }
    }
  }
  attr {
    key: "_output_shapes"
    value {
      list {
        shape {
        }
      }
    }
  }
  attr {
    key: "allowed_devices"
    value {
      list {
      }
    }
  }
  attr {
    key: "container"
    value {
      s: ""
    }
  }
  attr {
    key: "dtype"
    value {
      type: DT_FLOAT
    }
  }
  attr {
    key: "shape"
    value {
      shape {
        dim {
          size: 4
        }
        dim {
          size: 16
        }
      }
    }
  }
  attr {
    key: "shared_name"
    value {
      s: "dense_4/kernel"
    }
  }
}
node {
  name: "dense_4/kernel/IsInitialized/VarIsInitializedOp"
  op: "VarIsInitializedOp"
  input: "dense_4/kernel"
  attr {
    key: "_output_shapes"
    value {
      list {
        shape {
        }
      }
    }
  }
}
node {
  name: "dense_4/kernel/Assign"
  op: "AssignVariableOp"
  input: "dense_4/kernel"
  input: "dense_4/kernel/Initializer/random_uniform"
  attr {
    key: "dtype"
    value {
      type: DT_FLOAT
    }
  }
}
node {
  name: "dense_4/kernel/Read/ReadVariableOp"
  op: "ReadVariableOp"
  input: "dense_4/kernel"
  attr {
    key: "_output_shapes"
    value {
      list {
        shape {
          dim {
            size: 4
          }
          dim {
            size: 16
          }
        }
      }
    }
  }
  attr {
    key: "dtype"
    value {
      type: DT_FLOAT
    }
  }
}
node {
  name: "dense_4/bias/Initializer/zeros"
  op: "Const"
  attr {
    key: "_class"
    value {
      list {
        s: "loc:@dense_4/bias"
      }
    }
  }
  attr {
    key: "_output_shapes"
    value {
      list {
        shape {
          dim {
            size: 16
          }
        }
      }
    }
  }
  attr {
    key: "dtype"
    value {
      type: DT_FLOAT
    }
  }
  attr {
    key: "value"
    value {
      tensor {
        dtype: DT_FLOAT
        tensor_shape {
          dim {
            size: 16
          }
        }
        float_val: 0.0
      }
    }
  }
}
node {
  name: "dense_4/bias"
  op: "VarHandleOp"
  attr {
    key: "_class"
    value {
      list {
        s: "loc:@dense_4/bias"
      }
    }
  }
  attr {
    key: "_output_shapes"
    value {
      list {
        shape {
        }
      }
    }
  }
  attr {
    key: "allowed_devices"
    value {
      list {
      }
    }
  }
  attr {
    key: "container"
    value {
      s: ""
    }
  }
  attr {
    key: "dtype"
    value {
      type: DT_FLOAT
    }
  }
  attr {
    key: "shape"
    value {
      shape {
        dim {
          size: 16
        }
      }
    }
  }
  attr {
    key: "shared_name"
    value {
      s: "dense_4/bias"
    }
  }
}
node {
  name: "dense_4/bias/IsInitialized/VarIsInitializedOp"
  op: "VarIsInitializedOp"
  input: "dense_4/bias"
  attr {
    key: "_output_shapes"
    value {
      list {
        shape {
        }
      }
    }
  }
}
node {
  name: "dense_4/bias/Assign"
  op: "AssignVariableOp"
  input: "dense_4/bias"
  input: "dense_4/bias/Initializer/zeros"
  attr {
    key: "dtype"
    value {
      type: DT_FLOAT
    }
  }
}
node {
  name: "dense_4/bias/Read/ReadVariableOp"
  op: "ReadVariableOp"
  input: "dense_4/bias"
  attr {
    key: "_output_shapes"
    value {
      list {
        shape {
          dim {
            size: 16
          }
        }
      }
    }
  }
  attr {
    key: "dtype"
    value {
      type: DT_FLOAT
    }
  }
}
node {
  name: "dense_4/MatMul/ReadVariableOp"
  op: "ReadVariableOp"
  input: "dense_4/kernel"
  attr {
    key: "_output_shapes"
    value {
      list {
        shape {
          dim {
            size: 4
          }
          dim {
            size: 16
          }
        }
      }
    }
  }
  attr {
    key: "dtype"
    value {
      type: DT_FLOAT
    }
  }
}
node {
  name: "dense_4/MatMul"
  op: "MatMul"
  input: "IteratorGetNext"
  input: "dense_4/MatMul/ReadVariableOp"
  attr {
    key: "T"
    value {
      type: DT_FLOAT
    }
  }
  attr {
    key: "_output_shapes"
    value {
      list {
        shape {
          dim {
            size: -1
          }
          dim {
            size: 16
          }
        }
      }
    }
  }
  attr {
    key: "transpose_a"
    value {
      b: false
    }
  }
  attr {
    key: "transpose_b"
    value {
      b: false
    }
  }
}
node {
  name: "dense_4/BiasAdd/ReadVariableOp"
  op: "ReadVariableOp"
  input: "dense_4/bias"
  attr {
    key: "_output_shapes"
    value {
      list {
        shape {
          dim {
            size: 16
          }
        }
      }
    }
  }
  attr {
    key: "dtype"
    value {
      type: DT_FLOAT
    }
  }
}
node {
  name: "dense_4/BiasAdd"
  op: "BiasAdd"
  input: "dense_4/MatMul"
  input: "dense_4/BiasAdd/ReadVariableOp"
  attr {
    key: "T"
    value {
      type: DT_FLOAT
    }
  }
  attr {
    key: "_output_shapes"
    value {
      list {
        shape {
          dim {
            size: -1
          }
          dim {
            size: 16
          }
        }
      }
    }
  }
  attr {
    key: "data_format"
    value {
      s: "NHWC"
    }
  }
}
node {
  name: "dense_4/Relu"
  op: "Relu"
  input: "dense_4/BiasAdd"
  attr {
    key: "T"
    value {
      type: DT_FLOAT
    }
  }
  attr {
    key: "_output_shapes"
    value {
      list {
        shape {
          dim {
            size: -1
          }
          dim {
            size: 16
          }
        }
      }
    }
  }
}
node {
  name: "dropout_2/dropout/Const"
  op: "Const"
  attr {
    key: "_output_shapes"
    value {
      list {
        shape {
        }
      }
    }
  }
  attr {
    key: "dtype"
    value {
      type: DT_FLOAT
    }
  }
  attr {
    key: "value"
    value {
      tensor {
        dtype: DT_FLOAT
        tensor_shape {
        }
        float_val: 1.25
      }
    }
  }
}
node {
  name: "dropout_2/dropout/Mul"
  op: "Mul"
  input: "dense_4/Relu"
  input: "dropout_2/dropout/Const"
  attr {
    key: "T"
    value {
      type: DT_FLOAT
    }
  }
  attr {
    key: "_output_shapes"
    value {
      list {
        shape {
          dim {
            size: -1
          }
          dim {
            size: 16
          }
        }
      }
    }
  }
}
node {
  name: "dropout_2/dropout/Shape"
  op: "Shape"
  input: "dense_4/Relu"
  attr {
    key: "T"
    value {
      type: DT_FLOAT
    }
  }
  attr {
    key: "_output_shapes"
    value {
      list {
        shape {
          dim {
            size: 2
          }
        }
      }
    }
  }
  attr {
    key: "out_type"
    value {
      type: DT_INT32
    }
  }
}
node {
  name: "dropout_2/dropout/random_uniform/RandomUniform"
  op: "RandomUniform"
  input: "dropout_2/dropout/Shape"
  attr {
    key: "T"
    value {
      type: DT_INT32
    }
  }
  attr {
    key: "_output_shapes"
    value {
      list {
        shape {
          dim {
            size: -1
          }
          dim {
            size: 16
          }
        }
      }
    }
  }
  attr {
    key: "dtype"
    value {
      type: DT_FLOAT
    }
  }
  attr {
    key: "seed"
    value {
      i: 0
    }
  }
  attr {
    key: "seed2"
    value {
      i: 0
    }
  }
}
node {
  name: "dropout_2/dropout/GreaterEqual/y"
  op: "Const"
  attr {
    key: "_output_shapes"
    value {
      list {
        shape {
        }
      }
    }
  }
  attr {
    key: "dtype"
    value {
      type: DT_FLOAT
    }
  }
  attr {
    key: "value"
    value {
      tensor {
        dtype: DT_FLOAT
        tensor_shape {
        }
        float_val: 0.20000000298023224
      }
    }
  }
}
node {
  name: "dropout_2/dropout/GreaterEqual"
  op: "GreaterEqual"
  input: "dropout_2/dropout/random_uniform/RandomUniform"
  input: "dropout_2/dropout/GreaterEqual/y"
  attr {
    key: "T"
    value {
      type: DT_FLOAT
    }
  }
  attr {
    key: "_output_shapes"
    value {
      list {
        shape {
          dim {
            size: -1
          }
          dim {
            size: 16
          }
        }
      }
    }
  }
}
node {
  name: "dropout_2/dropout/Cast"
  op: "Cast"
  input: "dropout_2/dropout/GreaterEqual"
  attr {
    key: "DstT"
    value {
      type: DT_FLOAT
    }
  }
  attr {
    key: "SrcT"
    value {
      type: DT_BOOL
    }
  }
  attr {
    key: "Truncate"
    value {
      b: false
    }
  }
  attr {
    key: "_output_shapes"
    value {
      list {
        shape {
          dim {
            size: -1
          }
          dim {
            size: 16
          }
        }
      }
    }
  }
}
node {
  name: "dropout_2/dropout/Mul_1"
  op: "Mul"
  input: "dropout_2/dropout/Mul"
  input: "dropout_2/dropout/Cast"
  attr {
    key: "T"
    value {
      type: DT_FLOAT
    }
  }
  attr {
    key: "_output_shapes"
    value {
      list {
        shape {
          dim {
            size: -1
          }
          dim {
            size: 16
          }
        }
      }
    }
  }
}
node {
  name: "dense_5/kernel/Initializer/random_uniform/shape"
  op: "Const"
  attr {
    key: "_class"
    value {
      list {
        s: "loc:@dense_5/kernel"
      }
    }
  }
  attr {
    key: "_output_shapes"
    value {
      list {
        shape {
          dim {
            size: 2
          }
        }
      }
    }
  }
  attr {
    key: "dtype"
    value {
      type: DT_INT32
    }
  }
  attr {
    key: "value"
    value {
      tensor {
        dtype: DT_INT32
        tensor_shape {
          dim {
            size: 2
          }
        }
        tensor_content: "\020\000\000\000\003\000\000\000"
      }
    }
  }
}
node {
  name: "dense_5/kernel/Initializer/random_uniform/min"
  op: "Const"
  attr {
    key: "_class"
    value {
      list {
        s: "loc:@dense_5/kernel"
      }
    }
  }
  attr {
    key: "_output_shapes"
    value {
      list {
        shape {
        }
      }
    }
  }
  attr {
    key: "dtype"
    value {
      type: DT_FLOAT
    }
  }
  attr {
    key: "value"
    value {
      tensor {
        dtype: DT_FLOAT
        tensor_shape {
        }
        float_val: -0.5619514584541321
      }
    }
  }
}
node {
  name: "dense_5/kernel/Initializer/random_uniform/max"
  op: "Const"
  attr {
    key: "_class"
    value {
      list {
        s: "loc:@dense_5/kernel"
      }
    }
  }
  attr {
    key: "_output_shapes"
    value {
      list {
        shape {
        }
      }
    }
  }
  attr {
    key: "dtype"
    value {
      type: DT_FLOAT
    }
  }
  attr {
    key: "value"
    value {
      tensor {
        dtype: DT_FLOAT
        tensor_shape {
        }
        float_val: 0.5619514584541321
      }
    }
  }
}
node {
  name: "dense_5/kernel/Initializer/random_uniform/RandomUniform"
  op: "RandomUniform"
  input: "dense_5/kernel/Initializer/random_uniform/shape"
  attr {
    key: "T"
    value {
      type: DT_INT32
    }
  }
  attr {
    key: "_class"
    value {
      list {
        s: "loc:@dense_5/kernel"
      }
    }
  }
  attr {
    key: "_output_shapes"
    value {
      list {
        shape {
          dim {
            size: 16
          }
          dim {
            size: 3
          }
        }
      }
    }
  }
  attr {
    key: "dtype"
    value {
      type: DT_FLOAT
    }
  }
  attr {
    key: "seed"
    value {
      i: 0
    }
  }
  attr {
    key: "seed2"
    value {
      i: 0
    }
  }
}
node {
  name: "dense_5/kernel/Initializer/random_uniform/sub"
  op: "Sub"
  input: "dense_5/kernel/Initializer/random_uniform/max"
  input: "dense_5/kernel/Initializer/random_uniform/min"
  attr {
    key: "T"
    value {
      type: DT_FLOAT
    }
  }
  attr {
    key: "_class"
    value {
      list {
        s: "loc:@dense_5/kernel"
      }
    }
  }
  attr {
    key: "_output_shapes"
    value {
      list {
        shape {
        }
      }
    }
  }
}
node {
  name: "dense_5/kernel/Initializer/random_uniform/mul"
  op: "Mul"
  input: "dense_5/kernel/Initializer/random_uniform/RandomUniform"
  input: "dense_5/kernel/Initializer/random_uniform/sub"
  attr {
    key: "T"
    value {
      type: DT_FLOAT
    }
  }
  attr {
    key: "_class"
    value {
      list {
        s: "loc:@dense_5/kernel"
      }
    }
  }
  attr {
    key: "_output_shapes"
    value {
      list {
        shape {
          dim {
            size: 16
          }
          dim {
            size: 3
          }
        }
      }
    }
  }
}
node {
  name: "dense_5/kernel/Initializer/random_uniform"
  op: "Add"
  input: "dense_5/kernel/Initializer/random_uniform/mul"
  input: "dense_5/kernel/Initializer/random_uniform/min"
  attr {
    key: "T"
    value {
      type: DT_FLOAT
    }
  }
  attr {
    key: "_class"
    value {
      list {
        s: "loc:@dense_5/kernel"
      }
    }
  }
  attr {
    key: "_output_shapes"
    value {
      list {
        shape {
          dim {
            size: 16
          }
          dim {
            size: 3
          }
        }
      }
    }
  }
}
node {
  name: "dense_5/kernel"
  op: "VarHandleOp"
  attr {
    key: "_class"
    value {
      list {
        s: "loc:@dense_5/kernel"
      }
    }
  }
  attr {
    key: "_output_shapes"
    value {
      list {
        shape {
        }
      }
    }
  }
  attr {
    key: "allowed_devices"
    value {
      list {
      }
    }
  }
  attr {
    key: "container"
    value {
      s: ""
    }
  }
  attr {
    key: "dtype"
    value {
      type: DT_FLOAT
    }
  }
  attr {
    key: "shape"
    value {
      shape {
        dim {
          size: 16
        }
        dim {
          size: 3
        }
      }
    }
  }
  attr {
    key: "shared_name"
    value {
      s: "dense_5/kernel"
    }
  }
}
node {
  name: "dense_5/kernel/IsInitialized/VarIsInitializedOp"
  op: "VarIsInitializedOp"
  input: "dense_5/kernel"
  attr {
    key: "_output_shapes"
    value {
      list {
        shape {
        }
      }
    }
  }
}
node {
  name: "dense_5/kernel/Assign"
  op: "AssignVariableOp"
  input: "dense_5/kernel"
  input: "dense_5/kernel/Initializer/random_uniform"
  attr {
    key: "dtype"
    value {
      type: DT_FLOAT
    }
  }
}
node {
  name: "dense_5/kernel/Read/ReadVariableOp"
  op: "ReadVariableOp"
  input: "dense_5/kernel"
  attr {
    key: "_output_shapes"
    value {
      list {
        shape {
          dim {
            size: 16
          }
          dim {
            size: 3
          }
        }
      }
    }
  }
  attr {
    key: "dtype"
    value {
      type: DT_FLOAT
    }
  }
}
node {
  name: "dense_5/bias/Initializer/zeros"
  op: "Const"
  attr {
    key: "_class"
    value {
      list {
        s: "loc:@dense_5/bias"
      }
    }
  }
  attr {
    key: "_output_shapes"
    value {
      list {
        shape {
          dim {
            size: 3
          }
        }
      }
    }
  }
  attr {
    key: "dtype"
    value {
      type: DT_FLOAT
    }
  }
  attr {
    key: "value"
    value {
      tensor {
        dtype: DT_FLOAT
        tensor_shape {
          dim {
            size: 3
          }
        }
        float_val: 0.0
      }
    }
  }
}
node {
  name: "dense_5/bias"
  op: "VarHandleOp"
  attr {
    key: "_class"
    value {
      list {
        s: "loc:@dense_5/bias"
      }
    }
  }
  attr {
    key: "_output_shapes"
    value {
      list {
        shape {
        }
      }
    }
  }
  attr {
    key: "allowed_devices"
    value {
      list {
      }
    }
  }
  attr {
    key: "container"
    value {
      s: ""
    }
  }
  attr {
    key: "dtype"
    value {
      type: DT_FLOAT
    }
  }
  attr {
    key: "shape"
    value {
      shape {
        dim {
          size: 3
        }
      }
    }
  }
  attr {
    key: "shared_name"
    value {
      s: "dense_5/bias"
    }
  }
}
node {
  name: "dense_5/bias/IsInitialized/VarIsInitializedOp"
  op: "VarIsInitializedOp"
  input: "dense_5/bias"
  attr {
    key: "_output_shapes"
    value {
      list {
        shape {
        }
      }
    }
  }
}
node {
  name: "dense_5/bias/Assign"
  op: "AssignVariableOp"
  input: "dense_5/bias"
  input: "dense_5/bias/Initializer/zeros"
  attr {
    key: "dtype"
    value {
      type: DT_FLOAT
    }
  }
}
node {
  name: "dense_5/bias/Read/ReadVariableOp"
  op: "ReadVariableOp"
  input: "dense_5/bias"
  attr {
    key: "_output_shapes"
    value {
      list {
        shape {
          dim {
            size: 3
          }
        }
      }
    }
  }
  attr {
    key: "dtype"
    value {
      type: DT_FLOAT
    }
  }
}
node {
  name: "dense_5/MatMul/ReadVariableOp"
  op: "ReadVariableOp"
  input: "dense_5/kernel"
  attr {
    key: "_output_shapes"
    value {
      list {
        shape {
          dim {
            size: 16
          }
          dim {
            size: 3
          }
        }
      }
    }
  }
  attr {
    key: "dtype"
    value {
      type: DT_FLOAT
    }
  }
}
node {
  name: "dense_5/MatMul"
  op: "MatMul"
  input: "dropout_2/dropout/Mul_1"
  input: "dense_5/MatMul/ReadVariableOp"
  attr {
    key: "T"
    value {
      type: DT_FLOAT
    }
  }
  attr {
    key: "_output_shapes"
    value {
      list {
        shape {
          dim {
            size: -1
          }
          dim {
            size: 3
          }
        }
      }
    }
  }
  attr {
    key: "transpose_a"
    value {
      b: false
    }
  }
  attr {
    key: "transpose_b"
    value {
      b: false
    }
  }
}
node {
  name: "dense_5/BiasAdd/ReadVariableOp"
  op: "ReadVariableOp"
  input: "dense_5/bias"
  attr {
    key: "_output_shapes"
    value {
      list {
        shape {
          dim {
            size: 3
          }
        }
      }
    }
  }
  attr {
    key: "dtype"
    value {
      type: DT_FLOAT
    }
  }
}
node {
  name: "dense_5/BiasAdd"
  op: "BiasAdd"
  input: "dense_5/MatMul"
  input: "dense_5/BiasAdd/ReadVariableOp"
  attr {
    key: "T"
    value {
      type: DT_FLOAT
    }
  }
  attr {
    key: "_output_shapes"
    value {
      list {
        shape {
          dim {
            size: -1
          }
          dim {
            size: 3
          }
        }
      }
    }
  }
  attr {
    key: "data_format"
    value {
      s: "NHWC"
    }
  }
}
node {
  name: "loss/dense_5_loss/Cast"
  op: "Cast"
  input: "IteratorGetNext:1"
  attr {
    key: "DstT"
    value {
      type: DT_FLOAT
    }
  }
  attr {
    key: "SrcT"
    value {
      type: DT_INT32
    }
  }
  attr {
    key: "Truncate"
    value {
      b: false
    }
  }
  attr {
    key: "_output_shapes"
    value {
      list {
        shape {
          dim {
            size: -1
          }
        }
      }
    }
  }
}
node {
  name: "loss/dense_5_loss/Cast_1"
  op: "Cast"
  input: "loss/dense_5_loss/Cast"
  attr {
    key: "DstT"
    value {
      type: DT_INT64
    }
  }
  attr {
    key: "SrcT"
    value {
      type: DT_FLOAT
    }
  }
  attr {
    key: "Truncate"
    value {
      b: false
    }
  }
  attr {
    key: "_output_shapes"
    value {
      list {
        shape {
          dim {
            size: -1
          }
        }
      }
    }
  }
}
node {
  name: "loss/dense_5_loss/Shape"
  op: "Shape"
  input: "dense_5/BiasAdd"
  attr {
    key: "T"
    value {
      type: DT_FLOAT
    }
  }
  attr {
    key: "_output_shapes"
    value {
      list {
        shape {
          dim {
            size: 2
          }
        }
      }
    }
  }
  attr {
    key: "out_type"
    value {
      type: DT_INT32
    }
  }
}
node {
  name: "loss/dense_5_loss/SparseSoftmaxCrossEntropyWithLogits/Shape"
  op: "Shape"
  input: "loss/dense_5_loss/Cast_1"
  attr {
    key: "T"
    value {
      type: DT_INT64
    }
  }
  attr {
    key: "_output_shapes"
    value {
      list {
        shape {
          dim {
            size: 1
          }
        }
      }
    }
  }
  attr {
    key: "out_type"
    value {
      type: DT_INT32
    }
  }
}
node {
  name: "loss/dense_5_loss/SparseSoftmaxCrossEntropyWithLogits/SparseSoftmaxCrossEntropyWithLogits"
  op: "SparseSoftmaxCrossEntropyWithLogits"
  input: "dense_5/BiasAdd"
  input: "loss/dense_5_loss/Cast_1"
  attr {
    key: "T"
    value {
      type: DT_FLOAT
    }
  }
  attr {
    key: "Tlabels"
    value {
      type: DT_INT64
    }
  }
  attr {
    key: "_output_shapes"
    value {
      list {
        shape {
          dim {
            size: -1
          }
        }
        shape {
          dim {
            size: -1
          }
          dim {
            size: 3
          }
        }
      }
    }
  }
}
node {
  name: "loss/dense_5_loss/weighted_loss/Const"
  op: "Const"
  attr {
    key: "_output_shapes"
    value {
      list {
        shape {
        }
      }
    }
  }
  attr {
    key: "dtype"
    value {
      type: DT_FLOAT
    }
  }
  attr {
    key: "value"
    value {
      tensor {
        dtype: DT_FLOAT
        tensor_shape {
        }
        float_val: 1.0
      }
    }
  }
}
node {
  name: "loss/dense_5_loss/weighted_loss/Mul"
  op: "Mul"
  input: "loss/dense_5_loss/SparseSoftmaxCrossEntropyWithLogits/SparseSoftmaxCrossEntropyWithLogits"
  input: "loss/dense_5_loss/weighted_loss/Const"
  attr {
    key: "T"
    value {
      type: DT_FLOAT
    }
  }
  attr {
    key: "_output_shapes"
    value {
      list {
        shape {
          dim {
            size: -1
          }
        }
      }
    }
  }
}
node {
  name: "loss/dense_5_loss/Const"
  op: "Const"
  attr {
    key: "_output_shapes"
    value {
      list {
        shape {
          dim {
            size: 1
          }
        }
      }
    }
  }
  attr {
    key: "dtype"
    value {
      type: DT_INT32
    }
  }
  attr {
    key: "value"
    value {
      tensor {
        dtype: DT_INT32
        tensor_shape {
          dim {
            size: 1
          }
        }
        int_val: 0
      }
    }
  }
}
node {
  name: "loss/dense_5_loss/Sum"
  op: "Sum"
  input: "loss/dense_5_loss/weighted_loss/Mul"
  input: "loss/dense_5_loss/Const"
  attr {
    key: "T"
    value {
      type: DT_FLOAT
    }
  }
  attr {
    key: "Tidx"
    value {
      type: DT_INT32
    }
  }
  attr {
    key: "_output_shapes"
    value {
      list {
        shape {
        }
      }
    }
  }
  attr {
    key: "keep_dims"
    value {
      b: false
    }
  }
}
node {
  name: "loss/dense_5_loss/num_elements"
  op: "Size"
  input: "loss/dense_5_loss/weighted_loss/Mul"
  attr {
    key: "T"
    value {
      type: DT_FLOAT
    }
  }
  attr {
    key: "_output_shapes"
    value {
      list {
        shape {
        }
      }
    }
  }
  attr {
    key: "out_type"
    value {
      type: DT_INT32
    }
  }
}
node {
  name: "loss/dense_5_loss/num_elements/Cast"
  op: "Cast"
  input: "loss/dense_5_loss/num_elements"
  attr {
    key: "DstT"
    value {
      type: DT_FLOAT
    }
  }
  attr {
    key: "SrcT"
    value {
      type: DT_INT32
    }
  }
  attr {
    key: "Truncate"
    value {
      b: false
    }
  }
  attr {
    key: "_output_shapes"
    value {
      list {
        shape {
        }
      }
    }
  }
}
node {
  name: "loss/dense_5_loss/Const_1"
  op: "Const"
  attr {
    key: "_output_shapes"
    value {
      list {
        shape {
          dim {
          }
        }
      }
    }
  }
  attr {
    key: "dtype"
    value {
      type: DT_INT32
    }
  }
  attr {
    key: "value"
    value {
      tensor {
        dtype: DT_INT32
        tensor_shape {
          dim {
          }
        }
      }
    }
  }
}
node {
  name: "loss/dense_5_loss/Sum_1"
  op: "Sum"
  input: "loss/dense_5_loss/Sum"
  input: "loss/dense_5_loss/Const_1"
  attr {
    key: "T"
    value {
      type: DT_FLOAT
    }
  }
  attr {
    key: "Tidx"
    value {
      type: DT_INT32
    }
  }
  attr {
    key: "_output_shapes"
    value {
      list {
        shape {
        }
      }
    }
  }
  attr {
    key: "keep_dims"
    value {
      b: false
    }
  }
}
node {
  name: "loss/dense_5_loss/value"
  op: "DivNoNan"
  input: "loss/dense_5_loss/Sum_1"
  input: "loss/dense_5_loss/num_elements/Cast"
  attr {
    key: "T"
    value {
      type: DT_FLOAT
    }
  }
  attr {
    key: "_output_shapes"
    value {
      list {
        shape {
        }
      }
    }
  }
}
node {
  name: "loss/mul/x"
  op: "Const"
  attr {
    key: "_output_shapes"
    value {
      list {
        shape {
        }
      }
    }
  }
  attr {
    key: "dtype"
    value {
      type: DT_FLOAT
    }
  }
  attr {
    key: "value"
    value {
      tensor {
        dtype: DT_FLOAT
        tensor_shape {
        }
        float_val: 1.0
      }
    }
  }
}
node {
  name: "loss/mul"
  op: "Mul"
  input: "loss/mul/x"
  input: "loss/dense_5_loss/value"
  attr {
    key: "T"
    value {
      type: DT_FLOAT
    }
  }
  attr {
    key: "_output_shapes"
    value {
      list {
        shape {
        }
      }
    }
  }
}
node {
  name: "training/Adam/gradients/gradients/Shape"
  op: "Const"
  attr {
    key: "_output_shapes"
    value {
      list {
        shape {
          dim {
          }
        }
      }
    }
  }
  attr {
    key: "dtype"
    value {
      type: DT_INT32
    }
  }
  attr {
    key: "value"
    value {
      tensor {
        dtype: DT_INT32
        tensor_shape {
          dim {
          }
        }
      }
    }
  }
}
node {
  name: "training/Adam/gradients/gradients/grad_ys_0"
  op: "Const"
  attr {
    key: "_output_shapes"
    value {
      list {
        shape {
        }
      }
    }
  }
  attr {
    key: "dtype"
    value {
      type: DT_FLOAT
    }
  }
  attr {
    key: "value"
    value {
      tensor {
        dtype: DT_FLOAT
        tensor_shape {
        }
        float_val: 1.0
      }
    }
  }
}
node {
  name: "training/Adam/gradients/gradients/Fill"
  op: "Fill"
  input: "training/Adam/gradients/gradients/Shape"
  input: "training/Adam/gradients/gradients/grad_ys_0"
  attr {
    key: "T"
    value {
      type: DT_FLOAT
    }
  }
  attr {
    key: "_output_shapes"
    value {
      list {
        shape {
        }
      }
    }
  }
  attr {
    key: "index_type"
    value {
      type: DT_INT32
    }
  }
}
node {
  name: "training/Adam/gradients/gradients/loss/mul_grad/Mul"
  op: "Mul"
  input: "training/Adam/gradients/gradients/Fill"
  input: "loss/dense_5_loss/value"
  attr {
    key: "T"
    value {
      type: DT_FLOAT
    }
  }
  attr {
    key: "_output_shapes"
    value {
      list {
        shape {
        }
      }
    }
  }
}
node {
  name: "training/Adam/gradients/gradients/loss/mul_grad/Mul_1"
  op: "Mul"
  input: "training/Adam/gradients/gradients/Fill"
  input: "loss/mul/x"
  attr {
    key: "T"
    value {
      type: DT_FLOAT
    }
  }
  attr {
    key: "_output_shapes"
    value {
      list {
        shape {
        }
      }
    }
  }
}
node {
  name: "training/Adam/gradients/gradients/loss/dense_5_loss/value_grad/Shape"
  op: "Const"
  attr {
    key: "_output_shapes"
    value {
      list {
        shape {
          dim {
          }
        }
      }
    }
  }
  attr {
    key: "dtype"
    value {
      type: DT_INT32
    }
  }
  attr {
    key: "value"
    value {
      tensor {
        dtype: DT_INT32
        tensor_shape {
          dim {
          }
        }
      }
    }
  }
}
node {
  name: "training/Adam/gradients/gradients/loss/dense_5_loss/value_grad/Shape_1"
  op: "Const"
  attr {
    key: "_output_shapes"
    value {
      list {
        shape {
          dim {
          }
        }
      }
    }
  }
  attr {
    key: "dtype"
    value {
      type: DT_INT32
    }
  }
  attr {
    key: "value"
    value {
      tensor {
        dtype: DT_INT32
        tensor_shape {
          dim {
          }
        }
      }
    }
  }
}
node {
  name: "training/Adam/gradients/gradients/loss/dense_5_loss/value_grad/BroadcastGradientArgs"
  op: "BroadcastGradientArgs"
  input: "training/Adam/gradients/gradients/loss/dense_5_loss/value_grad/Shape"
  input: "training/Adam/gradients/gradients/loss/dense_5_loss/value_grad/Shape_1"
  attr {
    key: "T"
    value {
      type: DT_INT32
    }
  }
  attr {
    key: "_output_shapes"
    value {
      list {
        shape {
          dim {
            size: -1
          }
        }
        shape {
          dim {
            size: -1
          }
        }
      }
    }
  }
}
node {
  name: "training/Adam/gradients/gradients/loss/dense_5_loss/value_grad/div_no_nan"
  op: "DivNoNan"
  input: "training/Adam/gradients/gradients/loss/mul_grad/Mul_1"
  input: "loss/dense_5_loss/num_elements/Cast"
  attr {
    key: "T"
    value {
      type: DT_FLOAT
    }
  }
  attr {
    key: "_output_shapes"
    value {
      list {
        shape {
        }
      }
    }
  }
}
node {
  name: "training/Adam/gradients/gradients/loss/dense_5_loss/value_grad/Sum"
  op: "Sum"
  input: "training/Adam/gradients/gradients/loss/dense_5_loss/value_grad/div_no_nan"
  input: "training/Adam/gradients/gradients/loss/dense_5_loss/value_grad/BroadcastGradientArgs"
  attr {
    key: "T"
    value {
      type: DT_FLOAT
    }
  }
  attr {
    key: "Tidx"
    value {
      type: DT_INT32
    }
  }
  attr {
    key: "_output_shapes"
    value {
      list {
        shape {
        }
      }
    }
  }
  attr {
    key: "keep_dims"
    value {
      b: false
    }
  }
}
node {
  name: "training/Adam/gradients/gradients/loss/dense_5_loss/value_grad/Reshape"
  op: "Reshape"
  input: "training/Adam/gradients/gradients/loss/dense_5_loss/value_grad/Sum"
  input: "training/Adam/gradients/gradients/loss/dense_5_loss/value_grad/Shape"
  attr {
    key: "T"
    value {
      type: DT_FLOAT
    }
  }
  attr {
    key: "Tshape"
    value {
      type: DT_INT32
    }
  }
  attr {
    key: "_output_shapes"
    value {
      list {
        shape {
        }
      }
    }
  }
}
node {
  name: "training/Adam/gradients/gradients/loss/dense_5_loss/value_grad/Neg"
  op: "Neg"
  input: "loss/dense_5_loss/Sum_1"
  attr {
    key: "T"
    value {
      type: DT_FLOAT
    }
  }
  attr {
    key: "_output_shapes"
    value {
      list {
        shape {
        }
      }
    }
  }
}
node {
  name: "training/Adam/gradients/gradients/loss/dense_5_loss/value_grad/div_no_nan_1"
  op: "DivNoNan"
  input: "training/Adam/gradients/gradients/loss/dense_5_loss/value_grad/Neg"
  input: "loss/dense_5_loss/num_elements/Cast"
  attr {
    key: "T"
    value {
      type: DT_FLOAT
    }
  }
  attr {
    key: "_output_shapes"
    value {
      list {
        shape {
        }
      }
    }
  }
}
node {
  name: "training/Adam/gradients/gradients/loss/dense_5_loss/value_grad/div_no_nan_2"
  op: "DivNoNan"
  input: "training/Adam/gradients/gradients/loss/dense_5_loss/value_grad/div_no_nan_1"
  input: "loss/dense_5_loss/num_elements/Cast"
  attr {
    key: "T"
    value {
      type: DT_FLOAT
    }
  }
  attr {
    key: "_output_shapes"
    value {
      list {
        shape {
        }
      }
    }
  }
}
node {
  name: "training/Adam/gradients/gradients/loss/dense_5_loss/value_grad/mul"
  op: "Mul"
  input: "training/Adam/gradients/gradients/loss/mul_grad/Mul_1"
  input: "training/Adam/gradients/gradients/loss/dense_5_loss/value_grad/div_no_nan_2"
  attr {
    key: "T"
    value {
      type: DT_FLOAT
    }
  }
  attr {
    key: "_output_shapes"
    value {
      list {
        shape {
        }
      }
    }
  }
}
node {
  name: "training/Adam/gradients/gradients/loss/dense_5_loss/value_grad/Sum_1"
  op: "Sum"
  input: "training/Adam/gradients/gradients/loss/dense_5_loss/value_grad/mul"
  input: "training/Adam/gradients/gradients/loss/dense_5_loss/value_grad/BroadcastGradientArgs:1"
  attr {
    key: "T"
    value {
      type: DT_FLOAT
    }
  }
  attr {
    key: "Tidx"
    value {
      type: DT_INT32
    }
  }
  attr {
    key: "_output_shapes"
    value {
      list {
        shape {
        }
      }
    }
  }
  attr {
    key: "keep_dims"
    value {
      b: false
    }
  }
}
node {
  name: "training/Adam/gradients/gradients/loss/dense_5_loss/value_grad/Reshape_1"
  op: "Reshape"
  input: "training/Adam/gradients/gradients/loss/dense_5_loss/value_grad/Sum_1"
  input: "training/Adam/gradients/gradients/loss/dense_5_loss/value_grad/Shape_1"
  attr {
    key: "T"
    value {
      type: DT_FLOAT
    }
  }
  attr {
    key: "Tshape"
    value {
      type: DT_INT32
    }
  }
  attr {
    key: "_output_shapes"
    value {
      list {
        shape {
        }
      }
    }
  }
}
node {
  name: "training/Adam/gradients/gradients/loss/dense_5_loss/Sum_1_grad/Reshape/shape"
  op: "Const"
  attr {
    key: "_output_shapes"
    value {
      list {
        shape {
          dim {
          }
        }
      }
    }
  }
  attr {
    key: "dtype"
    value {
      type: DT_INT32
    }
  }
  attr {
    key: "value"
    value {
      tensor {
        dtype: DT_INT32
        tensor_shape {
          dim {
          }
        }
      }
    }
  }
}
node {
  name: "training/Adam/gradients/gradients/loss/dense_5_loss/Sum_1_grad/Reshape"
  op: "Reshape"
  input: "training/Adam/gradients/gradients/loss/dense_5_loss/value_grad/Reshape"
  input: "training/Adam/gradients/gradients/loss/dense_5_loss/Sum_1_grad/Reshape/shape"
  attr {
    key: "T"
    value {
      type: DT_FLOAT
    }
  }
  attr {
    key: "Tshape"
    value {
      type: DT_INT32
    }
  }
  attr {
    key: "_output_shapes"
    value {
      list {
        shape {
        }
      }
    }
  }
}
node {
  name: "training/Adam/gradients/gradients/loss/dense_5_loss/Sum_1_grad/Const"
  op: "Const"
  attr {
    key: "_output_shapes"
    value {
      list {
        shape {
          dim {
          }
        }
      }
    }
  }
  attr {
    key: "dtype"
    value {
      type: DT_INT32
    }
  }
  attr {
    key: "value"
    value {
      tensor {
        dtype: DT_INT32
        tensor_shape {
          dim {
          }
        }
      }
    }
  }
}
node {
  name: "training/Adam/gradients/gradients/loss/dense_5_loss/Sum_1_grad/Tile"
  op: "Tile"
  input: "training/Adam/gradients/gradients/loss/dense_5_loss/Sum_1_grad/Reshape"
  input: "training/Adam/gradients/gradients/loss/dense_5_loss/Sum_1_grad/Const"
  attr {
    key: "T"
    value {
      type: DT_FLOAT
    }
  }
  attr {
    key: "Tmultiples"
    value {
      type: DT_INT32
    }
  }
  attr {
    key: "_output_shapes"
    value {
      list {
        shape {
        }
      }
    }
  }
}
node {
  name: "training/Adam/gradients/gradients/loss/dense_5_loss/Sum_grad/Reshape/shape"
  op: "Const"
  attr {
    key: "_output_shapes"
    value {
      list {
        shape {
          dim {
            size: 1
          }
        }
      }
    }
  }
  attr {
    key: "dtype"
    value {
      type: DT_INT32
    }
  }
  attr {
    key: "value"
    value {
      tensor {
        dtype: DT_INT32
        tensor_shape {
          dim {
            size: 1
          }
        }
        int_val: 1
      }
    }
  }
}
node {
  name: "training/Adam/gradients/gradients/loss/dense_5_loss/Sum_grad/Reshape"
  op: "Reshape"
  input: "training/Adam/gradients/gradients/loss/dense_5_loss/Sum_1_grad/Tile"
  input: "training/Adam/gradients/gradients/loss/dense_5_loss/Sum_grad/Reshape/shape"
  attr {
    key: "T"
    value {
      type: DT_FLOAT
    }
  }
  attr {
    key: "Tshape"
    value {
      type: DT_INT32
    }
  }
  attr {
    key: "_output_shapes"
    value {
      list {
        shape {
          dim {
            size: 1
          }
        }
      }
    }
  }
}
node {
  name: "training/Adam/gradients/gradients/loss/dense_5_loss/Sum_grad/Shape"
  op: "Shape"
  input: "loss/dense_5_loss/weighted_loss/Mul"
  attr {
    key: "T"
    value {
      type: DT_FLOAT
    }
  }
  attr {
    key: "_output_shapes"
    value {
      list {
        shape {
          dim {
            size: 1
          }
        }
      }
    }
  }
  attr {
    key: "out_type"
    value {
      type: DT_INT32
    }
  }
}
node {
  name: "training/Adam/gradients/gradients/loss/dense_5_loss/Sum_grad/Tile"
  op: "Tile"
  input: "training/Adam/gradients/gradients/loss/dense_5_loss/Sum_grad/Reshape"
  input: "training/Adam/gradients/gradients/loss/dense_5_loss/Sum_grad/Shape"
  attr {
    key: "T"
    value {
      type: DT_FLOAT
    }
  }
  attr {
    key: "Tmultiples"
    value {
      type: DT_INT32
    }
  }
  attr {
    key: "_output_shapes"
    value {
      list {
        shape {
          dim {
            size: -1
          }
        }
      }
    }
  }
}
node {
  name: "training/Adam/gradients/gradients/loss/dense_5_loss/weighted_loss/Mul_grad/Shape"
  op: "Shape"
  input: "loss/dense_5_loss/SparseSoftmaxCrossEntropyWithLogits/SparseSoftmaxCrossEntropyWithLogits"
  attr {
    key: "T"
    value {
      type: DT_FLOAT
    }
  }
  attr {
    key: "_output_shapes"
    value {
      list {
        shape {
          dim {
            size: 1
          }
        }
      }
    }
  }
  attr {
    key: "out_type"
    value {
      type: DT_INT32
    }
  }
}
node {
  name: "training/Adam/gradients/gradients/loss/dense_5_loss/weighted_loss/Mul_grad/Shape_1"
  op: "Shape"
  input: "loss/dense_5_loss/weighted_loss/Const"
  attr {
    key: "T"
    value {
      type: DT_FLOAT
    }
  }
  attr {
    key: "_output_shapes"
    value {
      list {
        shape {
          dim {
          }
        }
      }
    }
  }
  attr {
    key: "out_type"
    value {
      type: DT_INT32
    }
  }
}
node {
  name: "training/Adam/gradients/gradients/loss/dense_5_loss/weighted_loss/Mul_grad/BroadcastGradientArgs"
  op: "BroadcastGradientArgs"
  input: "training/Adam/gradients/gradients/loss/dense_5_loss/weighted_loss/Mul_grad/Shape"
  input: "training/Adam/gradients/gradients/loss/dense_5_loss/weighted_loss/Mul_grad/Shape_1"
  attr {
    key: "T"
    value {
      type: DT_INT32
    }
  }
  attr {
    key: "_output_shapes"
    value {
      list {
        shape {
          dim {
            size: -1
          }
        }
        shape {
          dim {
            size: -1
          }
        }
      }
    }
  }
}
node {
  name: "training/Adam/gradients/gradients/loss/dense_5_loss/weighted_loss/Mul_grad/Mul"
  op: "Mul"
  input: "training/Adam/gradients/gradients/loss/dense_5_loss/Sum_grad/Tile"
  input: "loss/dense_5_loss/weighted_loss/Const"
  attr {
    key: "T"
    value {
      type: DT_FLOAT
    }
  }
  attr {
    key: "_output_shapes"
    value {
      list {
        shape {
          dim {
            size: -1
          }
        }
      }
    }
  }
}
node {
  name: "training/Adam/gradients/gradients/loss/dense_5_loss/weighted_loss/Mul_grad/Sum"
  op: "Sum"
  input: "training/Adam/gradients/gradients/loss/dense_5_loss/weighted_loss/Mul_grad/Mul"
  input: "training/Adam/gradients/gradients/loss/dense_5_loss/weighted_loss/Mul_grad/BroadcastGradientArgs"
  attr {
    key: "T"
    value {
      type: DT_FLOAT
    }
  }
  attr {
    key: "Tidx"
    value {
      type: DT_INT32
    }
  }
  attr {
    key: "_output_shapes"
    value {
      list {
        shape {
          unknown_rank: true
        }
      }
    }
  }
  attr {
    key: "keep_dims"
    value {
      b: false
    }
  }
}
node {
  name: "training/Adam/gradients/gradients/loss/dense_5_loss/weighted_loss/Mul_grad/Reshape"
  op: "Reshape"
  input: "training/Adam/gradients/gradients/loss/dense_5_loss/weighted_loss/Mul_grad/Sum"
  input: "training/Adam/gradients/gradients/loss/dense_5_loss/weighted_loss/Mul_grad/Shape"
  attr {
    key: "T"
    value {
      type: DT_FLOAT
    }
  }
  attr {
    key: "Tshape"
    value {
      type: DT_INT32
    }
  }
  attr {
    key: "_output_shapes"
    value {
      list {
        shape {
          dim {
            size: -1
          }
        }
      }
    }
  }
}
node {
  name: "training/Adam/gradients/gradients/loss/dense_5_loss/weighted_loss/Mul_grad/Mul_1"
  op: "Mul"
  input: "loss/dense_5_loss/SparseSoftmaxCrossEntropyWithLogits/SparseSoftmaxCrossEntropyWithLogits"
  input: "training/Adam/gradients/gradients/loss/dense_5_loss/Sum_grad/Tile"
  attr {
    key: "T"
    value {
      type: DT_FLOAT
    }
  }
  attr {
    key: "_output_shapes"
    value {
      list {
        shape {
          dim {
            size: -1
          }
        }
      }
    }
  }
}
node {
  name: "training/Adam/gradients/gradients/loss/dense_5_loss/weighted_loss/Mul_grad/Sum_1"
  op: "Sum"
  input: "training/Adam/gradients/gradients/loss/dense_5_loss/weighted_loss/Mul_grad/Mul_1"
  input: "training/Adam/gradients/gradients/loss/dense_5_loss/weighted_loss/Mul_grad/BroadcastGradientArgs:1"
  attr {
    key: "T"
    value {
      type: DT_FLOAT
    }
  }
  attr {
    key: "Tidx"
    value {
      type: DT_INT32
    }
  }
  attr {
    key: "_output_shapes"
    value {
      list {
        shape {
          unknown_rank: true
        }
      }
    }
  }
  attr {
    key: "keep_dims"
    value {
      b: false
    }
  }
}
node {
  name: "training/Adam/gradients/gradients/loss/dense_5_loss/weighted_loss/Mul_grad/Reshape_1"
  op: "Reshape"
  input: "training/Adam/gradients/gradients/loss/dense_5_loss/weighted_loss/Mul_grad/Sum_1"
  input: "training/Adam/gradients/gradients/loss/dense_5_loss/weighted_loss/Mul_grad/Shape_1"
  attr {
    key: "T"
    value {
      type: DT_FLOAT
    }
  }
  attr {
    key: "Tshape"
    value {
      type: DT_INT32
    }
  }
  attr {
    key: "_output_shapes"
    value {
      list {
        shape {
        }
      }
    }
  }
}
node {
  name: "training/Adam/gradients/gradients/zeros_like"
  op: "ZerosLike"
  input: "loss/dense_5_loss/SparseSoftmaxCrossEntropyWithLogits/SparseSoftmaxCrossEntropyWithLogits:1"
  attr {
    key: "T"
    value {
      type: DT_FLOAT
    }
  }
  attr {
    key: "_output_shapes"
    value {
      list {
        shape {
          dim {
            size: -1
          }
          dim {
            size: 3
          }
        }
      }
    }
  }
}
node {
  name: "training/Adam/gradients/gradients/loss/dense_5_loss/SparseSoftmaxCrossEntropyWithLogits/SparseSoftmaxCrossEntropyWithLogits_grad/ExpandDims/dim"
  op: "Const"
  attr {
    key: "_output_shapes"
    value {
      list {
        shape {
        }
      }
    }
  }
  attr {
    key: "dtype"
    value {
      type: DT_INT32
    }
  }
  attr {
    key: "value"
    value {
      tensor {
        dtype: DT_INT32
        tensor_shape {
        }
        int_val: -1
      }
    }
  }
}
node {
  name: "training/Adam/gradients/gradients/loss/dense_5_loss/SparseSoftmaxCrossEntropyWithLogits/SparseSoftmaxCrossEntropyWithLogits_grad/ExpandDims"
  op: "ExpandDims"
  input: "training/Adam/gradients/gradients/loss/dense_5_loss/weighted_loss/Mul_grad/Reshape"
  input: "training/Adam/gradients/gradients/loss/dense_5_loss/SparseSoftmaxCrossEntropyWithLogits/SparseSoftmaxCrossEntropyWithLogits_grad/ExpandDims/dim"
  attr {
    key: "T"
    value {
      type: DT_FLOAT
    }
  }
  attr {
    key: "Tdim"
    value {
      type: DT_INT32
    }
  }
  attr {
    key: "_output_shapes"
    value {
      list {
        shape {
          dim {
            size: -1
          }
          dim {
            size: 1
          }
        }
      }
    }
  }
}
node {
  name: "training/Adam/gradients/gradients/loss/dense_5_loss/SparseSoftmaxCrossEntropyWithLogits/SparseSoftmaxCrossEntropyWithLogits_grad/mul"
  op: "Mul"
  input: "training/Adam/gradients/gradients/loss/dense_5_loss/SparseSoftmaxCrossEntropyWithLogits/SparseSoftmaxCrossEntropyWithLogits_grad/ExpandDims"
  input: "loss/dense_5_loss/SparseSoftmaxCrossEntropyWithLogits/SparseSoftmaxCrossEntropyWithLogits:1"
  attr {
    key: "T"
    value {
      type: DT_FLOAT
    }
  }
  attr {
    key: "_output_shapes"
    value {
      list {
        shape {
          dim {
            size: -1
          }
          dim {
            size: 3
          }
        }
      }
    }
  }
}
node {
  name: "training/Adam/gradients/gradients/dense_5/BiasAdd_grad/BiasAddGrad"
  op: "BiasAddGrad"
  input: "training/Adam/gradients/gradients/loss/dense_5_loss/SparseSoftmaxCrossEntropyWithLogits/SparseSoftmaxCrossEntropyWithLogits_grad/mul"
  attr {
    key: "T"
    value {
      type: DT_FLOAT
    }
  }
  attr {
    key: "_output_shapes"
    value {
      list {
        shape {
          dim {
            size: 3
          }
        }
      }
    }
  }
  attr {
    key: "data_format"
    value {
      s: "NHWC"
    }
  }
}
node {
  name: "training/Adam/gradients/gradients/dense_5/MatMul_grad/MatMul"
  op: "MatMul"
  input: "training/Adam/gradients/gradients/loss/dense_5_loss/SparseSoftmaxCrossEntropyWithLogits/SparseSoftmaxCrossEntropyWithLogits_grad/mul"
  input: "dense_5/MatMul/ReadVariableOp"
  attr {
    key: "T"
    value {
      type: DT_FLOAT
    }
  }
  attr {
    key: "_output_shapes"
    value {
      list {
        shape {
          dim {
            size: -1
          }
          dim {
            size: 16
          }
        }
      }
    }
  }
  attr {
    key: "transpose_a"
    value {
      b: false
    }
  }
  attr {
    key: "transpose_b"
    value {
      b: true
    }
  }
}
node {
  name: "training/Adam/gradients/gradients/dense_5/MatMul_grad/MatMul_1"
  op: "MatMul"
  input: "dropout_2/dropout/Mul_1"
  input: "training/Adam/gradients/gradients/loss/dense_5_loss/SparseSoftmaxCrossEntropyWithLogits/SparseSoftmaxCrossEntropyWithLogits_grad/mul"
  attr {
    key: "T"
    value {
      type: DT_FLOAT
    }
  }
  attr {
    key: "_output_shapes"
    value {
      list {
        shape {
          dim {
            size: 16
          }
          dim {
            size: 3
          }
        }
      }
    }
  }
  attr {
    key: "transpose_a"
    value {
      b: true
    }
  }
  attr {
    key: "transpose_b"
    value {
      b: false
    }
  }
}
node {
  name: "training/Adam/gradients/gradients/dropout_2/dropout/Mul_1_grad/Shape"
  op: "Shape"
  input: "dropout_2/dropout/Mul"
  attr {
    key: "T"
    value {
      type: DT_FLOAT
    }
  }
  attr {
    key: "_output_shapes"
    value {
      list {
        shape {
          dim {
            size: 2
          }
        }
      }
    }
  }
  attr {
    key: "out_type"
    value {
      type: DT_INT32
    }
  }
}
node {
  name: "training/Adam/gradients/gradients/dropout_2/dropout/Mul_1_grad/Shape_1"
  op: "Shape"
  input: "dropout_2/dropout/Cast"
  attr {
    key: "T"
    value {
      type: DT_FLOAT
    }
  }
  attr {
    key: "_output_shapes"
    value {
      list {
        shape {
          dim {
            size: 2
          }
        }
      }
    }
  }
  attr {
    key: "out_type"
    value {
      type: DT_INT32
    }
  }
}
node {
  name: "training/Adam/gradients/gradients/dropout_2/dropout/Mul_1_grad/BroadcastGradientArgs"
  op: "BroadcastGradientArgs"
  input: "training/Adam/gradients/gradients/dropout_2/dropout/Mul_1_grad/Shape"
  input: "training/Adam/gradients/gradients/dropout_2/dropout/Mul_1_grad/Shape_1"
  attr {
    key: "T"
    value {
      type: DT_INT32
    }
  }
  attr {
    key: "_output_shapes"
    value {
      list {
        shape {
          dim {
            size: -1
          }
        }
        shape {
          dim {
            size: -1
          }
        }
      }
    }
  }
}
node {
  name: "training/Adam/gradients/gradients/dropout_2/dropout/Mul_1_grad/Mul"
  op: "Mul"
  input: "training/Adam/gradients/gradients/dense_5/MatMul_grad/MatMul"
  input: "dropout_2/dropout/Cast"
  attr {
    key: "T"
    value {
      type: DT_FLOAT
    }
  }
  attr {
    key: "_output_shapes"
    value {
      list {
        shape {
          dim {
            size: -1
          }
          dim {
            size: 16
          }
        }
      }
    }
  }
}
node {
  name: "training/Adam/gradients/gradients/dropout_2/dropout/Mul_1_grad/Sum"
  op: "Sum"
  input: "training/Adam/gradients/gradients/dropout_2/dropout/Mul_1_grad/Mul"
  input: "training/Adam/gradients/gradients/dropout_2/dropout/Mul_1_grad/BroadcastGradientArgs"
  attr {
    key: "T"
    value {
      type: DT_FLOAT
    }
  }
  attr {
    key: "Tidx"
    value {
      type: DT_INT32
    }
  }
  attr {
    key: "_output_shapes"
    value {
      list {
        shape {
          unknown_rank: true
        }
      }
    }
  }
  attr {
    key: "keep_dims"
    value {
      b: false
    }
  }
}
node {
  name: "training/Adam/gradients/gradients/dropout_2/dropout/Mul_1_grad/Reshape"
  op: "Reshape"
  input: "training/Adam/gradients/gradients/dropout_2/dropout/Mul_1_grad/Sum"
  input: "training/Adam/gradients/gradients/dropout_2/dropout/Mul_1_grad/Shape"
  attr {
    key: "T"
    value {
      type: DT_FLOAT
    }
  }
  attr {
    key: "Tshape"
    value {
      type: DT_INT32
    }
  }
  attr {
    key: "_output_shapes"
    value {
      list {
        shape {
          dim {
            size: -1
          }
          dim {
            size: 16
          }
        }
      }
    }
  }
}
node {
  name: "training/Adam/gradients/gradients/dropout_2/dropout/Mul_1_grad/Mul_1"
  op: "Mul"
  input: "dropout_2/dropout/Mul"
  input: "training/Adam/gradients/gradients/dense_5/MatMul_grad/MatMul"
  attr {
    key: "T"
    value {
      type: DT_FLOAT
    }
  }
  attr {
    key: "_output_shapes"
    value {
      list {
        shape {
          dim {
            size: -1
          }
          dim {
            size: 16
          }
        }
      }
    }
  }
}
node {
  name: "training/Adam/gradients/gradients/dropout_2/dropout/Mul_1_grad/Sum_1"
  op: "Sum"
  input: "training/Adam/gradients/gradients/dropout_2/dropout/Mul_1_grad/Mul_1"
  input: "training/Adam/gradients/gradients/dropout_2/dropout/Mul_1_grad/BroadcastGradientArgs:1"
  attr {
    key: "T"
    value {
      type: DT_FLOAT
    }
  }
  attr {
    key: "Tidx"
    value {
      type: DT_INT32
    }
  }
  attr {
    key: "_output_shapes"
    value {
      list {
        shape {
          unknown_rank: true
        }
      }
    }
  }
  attr {
    key: "keep_dims"
    value {
      b: false
    }
  }
}
node {
  name: "training/Adam/gradients/gradients/dropout_2/dropout/Mul_1_grad/Reshape_1"
  op: "Reshape"
  input: "training/Adam/gradients/gradients/dropout_2/dropout/Mul_1_grad/Sum_1"
  input: "training/Adam/gradients/gradients/dropout_2/dropout/Mul_1_grad/Shape_1"
  attr {
    key: "T"
    value {
      type: DT_FLOAT
    }
  }
  attr {
    key: "Tshape"
    value {
      type: DT_INT32
    }
  }
  attr {
    key: "_output_shapes"
    value {
      list {
        shape {
          dim {
            size: -1
          }
          dim {
            size: 16
          }
        }
      }
    }
  }
}
node {
  name: "training/Adam/gradients/gradients/dropout_2/dropout/Mul_grad/Shape"
  op: "Shape"
  input: "dense_4/Relu"
  attr {
    key: "T"
    value {
      type: DT_FLOAT
    }
  }
  attr {
    key: "_output_shapes"
    value {
      list {
        shape {
          dim {
            size: 2
          }
        }
      }
    }
  }
  attr {
    key: "out_type"
    value {
      type: DT_INT32
    }
  }
}
node {
  name: "training/Adam/gradients/gradients/dropout_2/dropout/Mul_grad/Shape_1"
  op: "Shape"
  input: "dropout_2/dropout/Const"
  attr {
    key: "T"
    value {
      type: DT_FLOAT
    }
  }
  attr {
    key: "_output_shapes"
    value {
      list {
        shape {
          dim {
          }
        }
      }
    }
  }
  attr {
    key: "out_type"
    value {
      type: DT_INT32
    }
  }
}
node {
  name: "training/Adam/gradients/gradients/dropout_2/dropout/Mul_grad/BroadcastGradientArgs"
  op: "BroadcastGradientArgs"
  input: "training/Adam/gradients/gradients/dropout_2/dropout/Mul_grad/Shape"
  input: "training/Adam/gradients/gradients/dropout_2/dropout/Mul_grad/Shape_1"
  attr {
    key: "T"
    value {
      type: DT_INT32
    }
  }
  attr {
    key: "_output_shapes"
    value {
      list {
        shape {
          dim {
            size: -1
          }
        }
        shape {
          dim {
            size: -1
          }
        }
      }
    }
  }
}
node {
  name: "training/Adam/gradients/gradients/dropout_2/dropout/Mul_grad/Mul"
  op: "Mul"
  input: "training/Adam/gradients/gradients/dropout_2/dropout/Mul_1_grad/Reshape"
  input: "dropout_2/dropout/Const"
  attr {
    key: "T"
    value {
      type: DT_FLOAT
    }
  }
  attr {
    key: "_output_shapes"
    value {
      list {
        shape {
          dim {
            size: -1
          }
          dim {
            size: 16
          }
        }
      }
    }
  }
}
node {
  name: "training/Adam/gradients/gradients/dropout_2/dropout/Mul_grad/Sum"
  op: "Sum"
  input: "training/Adam/gradients/gradients/dropout_2/dropout/Mul_grad/Mul"
  input: "training/Adam/gradients/gradients/dropout_2/dropout/Mul_grad/BroadcastGradientArgs"
  attr {
    key: "T"
    value {
      type: DT_FLOAT
    }
  }
  attr {
    key: "Tidx"
    value {
      type: DT_INT32
    }
  }
  attr {
    key: "_output_shapes"
    value {
      list {
        shape {
          unknown_rank: true
        }
      }
    }
  }
  attr {
    key: "keep_dims"
    value {
      b: false
    }
  }
}
node {
  name: "training/Adam/gradients/gradients/dropout_2/dropout/Mul_grad/Reshape"
  op: "Reshape"
  input: "training/Adam/gradients/gradients/dropout_2/dropout/Mul_grad/Sum"
  input: "training/Adam/gradients/gradients/dropout_2/dropout/Mul_grad/Shape"
  attr {
    key: "T"
    value {
      type: DT_FLOAT
    }
  }
  attr {
    key: "Tshape"
    value {
      type: DT_INT32
    }
  }
  attr {
    key: "_output_shapes"
    value {
      list {
        shape {
          dim {
            size: -1
          }
          dim {
            size: 16
          }
        }
      }
    }
  }
}
node {
  name: "training/Adam/gradients/gradients/dropout_2/dropout/Mul_grad/Mul_1"
  op: "Mul"
  input: "dense_4/Relu"
  input: "training/Adam/gradients/gradients/dropout_2/dropout/Mul_1_grad/Reshape"
  attr {
    key: "T"
    value {
      type: DT_FLOAT
    }
  }
  attr {
    key: "_output_shapes"
    value {
      list {
        shape {
          dim {
            size: -1
          }
          dim {
            size: 16
          }
        }
      }
    }
  }
}
node {
  name: "training/Adam/gradients/gradients/dropout_2/dropout/Mul_grad/Sum_1"
  op: "Sum"
  input: "training/Adam/gradients/gradients/dropout_2/dropout/Mul_grad/Mul_1"
  input: "training/Adam/gradients/gradients/dropout_2/dropout/Mul_grad/BroadcastGradientArgs:1"
  attr {
    key: "T"
    value {
      type: DT_FLOAT
    }
  }
  attr {
    key: "Tidx"
    value {
      type: DT_INT32
    }
  }
  attr {
    key: "_output_shapes"
    value {
      list {
        shape {
          unknown_rank: true
        }
      }
    }
  }
  attr {
    key: "keep_dims"
    value {
      b: false
    }
  }
}
node {
  name: "training/Adam/gradients/gradients/dropout_2/dropout/Mul_grad/Reshape_1"
  op: "Reshape"
  input: "training/Adam/gradients/gradients/dropout_2/dropout/Mul_grad/Sum_1"
  input: "training/Adam/gradients/gradients/dropout_2/dropout/Mul_grad/Shape_1"
  attr {
    key: "T"
    value {
      type: DT_FLOAT
    }
  }
  attr {
    key: "Tshape"
    value {
      type: DT_INT32
    }
  }
  attr {
    key: "_output_shapes"
    value {
      list {
        shape {
        }
      }
    }
  }
}
node {
  name: "training/Adam/gradients/gradients/dense_4/Relu_grad/ReluGrad"
  op: "ReluGrad"
  input: "training/Adam/gradients/gradients/dropout_2/dropout/Mul_grad/Reshape"
  input: "dense_4/Relu"
  attr {
    key: "T"
    value {
      type: DT_FLOAT
    }
  }
  attr {
    key: "_output_shapes"
    value {
      list {
        shape {
          dim {
            size: -1
          }
          dim {
            size: 16
          }
        }
      }
    }
  }
}
node {
  name: "training/Adam/gradients/gradients/dense_4/BiasAdd_grad/BiasAddGrad"
  op: "BiasAddGrad"
  input: "training/Adam/gradients/gradients/dense_4/Relu_grad/ReluGrad"
  attr {
    key: "T"
    value {
      type: DT_FLOAT
    }
  }
  attr {
    key: "_output_shapes"
    value {
      list {
        shape {
          dim {
            size: 16
          }
        }
      }
    }
  }
  attr {
    key: "data_format"
    value {
      s: "NHWC"
    }
  }
}
node {
  name: "training/Adam/gradients/gradients/dense_4/MatMul_grad/MatMul"
  op: "MatMul"
  input: "training/Adam/gradients/gradients/dense_4/Relu_grad/ReluGrad"
  input: "dense_4/MatMul/ReadVariableOp"
  attr {
    key: "T"
    value {
      type: DT_FLOAT
    }
  }
  attr {
    key: "_output_shapes"
    value {
      list {
        shape {
          dim {
            size: -1
          }
          dim {
            size: 4
          }
        }
      }
    }
  }
  attr {
    key: "transpose_a"
    value {
      b: false
    }
  }
  attr {
    key: "transpose_b"
    value {
      b: true
    }
  }
}
node {
  name: "training/Adam/gradients/gradients/dense_4/MatMul_grad/MatMul_1"
  op: "MatMul"
  input: "IteratorGetNext"
  input: "training/Adam/gradients/gradients/dense_4/Relu_grad/ReluGrad"
  attr {
    key: "T"
    value {
      type: DT_FLOAT
    }
  }
  attr {
    key: "_output_shapes"
    value {
      list {
        shape {
          dim {
            size: 4
          }
          dim {
            size: 16
          }
        }
      }
    }
  }
  attr {
    key: "transpose_a"
    value {
      b: true
    }
  }
  attr {
    key: "transpose_b"
    value {
      b: false
    }
  }
}
node {
  name: "training/Adam/beta_1/Initializer/initial_value"
  op: "Const"
  attr {
    key: "_class"
    value {
      list {
        s: "loc:@training/Adam/beta_1"
      }
    }
  }
  attr {
    key: "_output_shapes"
    value {
      list {
        shape {
        }
      }
    }
  }
  attr {
    key: "dtype"
    value {
      type: DT_FLOAT
    }
  }
  attr {
    key: "value"
    value {
      tensor {
        dtype: DT_FLOAT
        tensor_shape {
        }
        float_val: 0.8999999761581421
      }
    }
  }
}
node {
  name: "training/Adam/beta_1"
  op: "VarHandleOp"
  attr {
    key: "_class"
    value {
      list {
        s: "loc:@training/Adam/beta_1"
      }
    }
  }
  attr {
    key: "_output_shapes"
    value {
      list {
        shape {
        }
      }
    }
  }
  attr {
    key: "allowed_devices"
    value {
      list {
      }
    }
  }
  attr {
    key: "container"
    value {
      s: ""
    }
  }
  attr {
    key: "dtype"
    value {
      type: DT_FLOAT
    }
  }
  attr {
    key: "shape"
    value {
      shape {
      }
    }
  }
  attr {
    key: "shared_name"
    value {
      s: "training/Adam/beta_1"
    }
  }
}
node {
  name: "training/Adam/beta_1/IsInitialized/VarIsInitializedOp"
  op: "VarIsInitializedOp"
  input: "training/Adam/beta_1"
  attr {
    key: "_output_shapes"
    value {
      list {
        shape {
        }
      }
    }
  }
}
node {
  name: "training/Adam/beta_1/Assign"
  op: "AssignVariableOp"
  input: "training/Adam/beta_1"
  input: "training/Adam/beta_1/Initializer/initial_value"
  attr {
    key: "dtype"
    value {
      type: DT_FLOAT
    }
  }
}
node {
  name: "training/Adam/beta_1/Read/ReadVariableOp"
  op: "ReadVariableOp"
  input: "training/Adam/beta_1"
  attr {
    key: "_output_shapes"
    value {
      list {
        shape {
        }
      }
    }
  }
  attr {
    key: "dtype"
    value {
      type: DT_FLOAT
    }
  }
}
node {
  name: "training/Adam/beta_2/Initializer/initial_value"
  op: "Const"
  attr {
    key: "_class"
    value {
      list {
        s: "loc:@training/Adam/beta_2"
      }
    }
  }
  attr {
    key: "_output_shapes"
    value {
      list {
        shape {
        }
      }
    }
  }
  attr {
    key: "dtype"
    value {
      type: DT_FLOAT
    }
  }
  attr {
    key: "value"
    value {
      tensor {
        dtype: DT_FLOAT
        tensor_shape {
        }
        float_val: 0.9990000128746033
      }
    }
  }
}
node {
  name: "training/Adam/beta_2"
  op: "VarHandleOp"
  attr {
    key: "_class"
    value {
      list {
        s: "loc:@training/Adam/beta_2"
      }
    }
  }
  attr {
    key: "_output_shapes"
    value {
      list {
        shape {
        }
      }
    }
  }
  attr {
    key: "allowed_devices"
    value {
      list {
      }
    }
  }
  attr {
    key: "container"
    value {
      s: ""
    }
  }
  attr {
    key: "dtype"
    value {
      type: DT_FLOAT
    }
  }
  attr {
    key: "shape"
    value {
      shape {
      }
    }
  }
  attr {
    key: "shared_name"
    value {
      s: "training/Adam/beta_2"
    }
  }
}
node {
  name: "training/Adam/beta_2/IsInitialized/VarIsInitializedOp"
  op: "VarIsInitializedOp"
  input: "training/Adam/beta_2"
  attr {
    key: "_output_shapes"
    value {
      list {
        shape {
        }
      }
    }
  }
}
node {
  name: "training/Adam/beta_2/Assign"
  op: "AssignVariableOp"
  input: "training/Adam/beta_2"
  input: "training/Adam/beta_2/Initializer/initial_value"
  attr {
    key: "dtype"
    value {
      type: DT_FLOAT
    }
  }
}
node {
  name: "training/Adam/beta_2/Read/ReadVariableOp"
  op: "ReadVariableOp"
  input: "training/Adam/beta_2"
  attr {
    key: "_output_shapes"
    value {
      list {
        shape {
        }
      }
    }
  }
  attr {
    key: "dtype"
    value {
      type: DT_FLOAT
    }
  }
}
node {
  name: "training/Adam/decay/Initializer/initial_value"
  op: "Const"
  attr {
    key: "_class"
    value {
      list {
        s: "loc:@training/Adam/decay"
      }
    }
  }
  attr {
    key: "_output_shapes"
    value {
      list {
        shape {
        }
      }
    }
  }
  attr {
    key: "dtype"
    value {
      type: DT_FLOAT
    }
  }
  attr {
    key: "value"
    value {
      tensor {
        dtype: DT_FLOAT
        tensor_shape {
        }
        float_val: 0.0
      }
    }
  }
}
node {
  name: "training/Adam/decay"
  op: "VarHandleOp"
  attr {
    key: "_class"
    value {
      list {
        s: "loc:@training/Adam/decay"
      }
    }
  }
  attr {
    key: "_output_shapes"
    value {
      list {
        shape {
        }
      }
    }
  }
  attr {
    key: "allowed_devices"
    value {
      list {
      }
    }
  }
  attr {
    key: "container"
    value {
      s: ""
    }
  }
  attr {
    key: "dtype"
    value {
      type: DT_FLOAT
    }
  }
  attr {
    key: "shape"
    value {
      shape {
      }
    }
  }
  attr {
    key: "shared_name"
    value {
      s: "training/Adam/decay"
    }
  }
}
node {
  name: "training/Adam/decay/IsInitialized/VarIsInitializedOp"
  op: "VarIsInitializedOp"
  input: "training/Adam/decay"
  attr {
    key: "_output_shapes"
    value {
      list {
        shape {
        }
      }
    }
  }
}
node {
  name: "training/Adam/decay/Assign"
  op: "AssignVariableOp"
  input: "training/Adam/decay"
  input: "training/Adam/decay/Initializer/initial_value"
  attr {
    key: "dtype"
    value {
      type: DT_FLOAT
    }
  }
}
node {
  name: "training/Adam/decay/Read/ReadVariableOp"
  op: "ReadVariableOp"
  input: "training/Adam/decay"
  attr {
    key: "_output_shapes"
    value {
      list {
        shape {
        }
      }
    }
  }
  attr {
    key: "dtype"
    value {
      type: DT_FLOAT
    }
  }
}
node {
  name: "training/Adam/learning_rate/Initializer/initial_value"
  op: "Const"
  attr {
    key: "_class"
    value {
      list {
        s: "loc:@training/Adam/learning_rate"
      }
    }
  }
  attr {
    key: "_output_shapes"
    value {
      list {
        shape {
        }
      }
    }
  }
  attr {
    key: "dtype"
    value {
      type: DT_FLOAT
    }
  }
  attr {
    key: "value"
    value {
      tensor {
        dtype: DT_FLOAT
        tensor_shape {
        }
        float_val: 0.0010000000474974513
      }
    }
  }
}
node {
  name: "training/Adam/learning_rate"
  op: "VarHandleOp"
  attr {
    key: "_class"
    value {
      list {
        s: "loc:@training/Adam/learning_rate"
      }
    }
  }
  attr {
    key: "_output_shapes"
    value {
      list {
        shape {
        }
      }
    }
  }
  attr {
    key: "allowed_devices"
    value {
      list {
      }
    }
  }
  attr {
    key: "container"
    value {
      s: ""
    }
  }
  attr {
    key: "dtype"
    value {
      type: DT_FLOAT
    }
  }
  attr {
    key: "shape"
    value {
      shape {
      }
    }
  }
  attr {
    key: "shared_name"
    value {
      s: "training/Adam/learning_rate"
    }
  }
}
node {
  name: "training/Adam/learning_rate/IsInitialized/VarIsInitializedOp"
  op: "VarIsInitializedOp"
  input: "training/Adam/learning_rate"
  attr {
    key: "_output_shapes"
    value {
      list {
        shape {
        }
      }
    }
  }
}
node {
  name: "training/Adam/learning_rate/Assign"
  op: "AssignVariableOp"
  input: "training/Adam/learning_rate"
  input: "training/Adam/learning_rate/Initializer/initial_value"
  attr {
    key: "dtype"
    value {
      type: DT_FLOAT
    }
  }
}
node {
  name: "training/Adam/learning_rate/Read/ReadVariableOp"
  op: "ReadVariableOp"
  input: "training/Adam/learning_rate"
  attr {
    key: "_output_shapes"
    value {
      list {
        shape {
        }
      }
    }
  }
  attr {
    key: "dtype"
    value {
      type: DT_FLOAT
    }
  }
}
node {
  name: "training/Adam/dense_4/kernel/m/Initializer/zeros"
  op: "Const"
  attr {
    key: "_class"
    value {
      list {
        s: "loc:@dense_4/kernel"
      }
    }
  }
  attr {
    key: "_output_shapes"
    value {
      list {
        shape {
          dim {
            size: 4
          }
          dim {
            size: 16
          }
        }
      }
    }
  }
  attr {
    key: "dtype"
    value {
      type: DT_FLOAT
    }
  }
  attr {
    key: "value"
    value {
      tensor {
        dtype: DT_FLOAT
        tensor_shape {
          dim {
            size: 4
          }
          dim {
            size: 16
          }
        }
        float_val: 0.0
      }
    }
  }
}
node {
  name: "training/Adam/dense_4/kernel/m"
  op: "VarHandleOp"
  attr {
    key: "_class"
    value {
      list {
        s: "loc:@dense_4/kernel"
      }
    }
  }
  attr {
    key: "_output_shapes"
    value {
      list {
        shape {
        }
      }
    }
  }
  attr {
    key: "allowed_devices"
    value {
      list {
      }
    }
  }
  attr {
    key: "container"
    value {
      s: ""
    }
  }
  attr {
    key: "dtype"
    value {
      type: DT_FLOAT
    }
  }
  attr {
    key: "shape"
    value {
      shape {
        dim {
          size: 4
        }
        dim {
          size: 16
        }
      }
    }
  }
  attr {
    key: "shared_name"
    value {
      s: "training/Adam/dense_4/kernel/m"
    }
  }
}
node {
  name: "training/Adam/dense_4/kernel/m/IsInitialized/VarIsInitializedOp"
  op: "VarIsInitializedOp"
  input: "training/Adam/dense_4/kernel/m"
  attr {
    key: "_class"
    value {
      list {
        s: "loc:@dense_4/kernel"
      }
    }
  }
  attr {
    key: "_output_shapes"
    value {
      list {
        shape {
        }
      }
    }
  }
}
node {
  name: "training/Adam/dense_4/kernel/m/Assign"
  op: "AssignVariableOp"
  input: "training/Adam/dense_4/kernel/m"
  input: "training/Adam/dense_4/kernel/m/Initializer/zeros"
  attr {
    key: "dtype"
    value {
      type: DT_FLOAT
    }
  }
}
node {
  name: "training/Adam/dense_4/kernel/m/Read/ReadVariableOp"
  op: "ReadVariableOp"
  input: "training/Adam/dense_4/kernel/m"
  attr {
    key: "_class"
    value {
      list {
        s: "loc:@dense_4/kernel"
      }
    }
  }
  attr {
    key: "_output_shapes"
    value {
      list {
        shape {
          dim {
            size: 4
          }
          dim {
            size: 16
          }
        }
      }
    }
  }
  attr {
    key: "dtype"
    value {
      type: DT_FLOAT
    }
  }
}
node {
  name: "training/Adam/dense_4/bias/m/Initializer/zeros"
  op: "Const"
  attr {
    key: "_class"
    value {
      list {
        s: "loc:@dense_4/bias"
      }
    }
  }
  attr {
    key: "_output_shapes"
    value {
      list {
        shape {
          dim {
            size: 16
          }
        }
      }
    }
  }
  attr {
    key: "dtype"
    value {
      type: DT_FLOAT
    }
  }
  attr {
    key: "value"
    value {
      tensor {
        dtype: DT_FLOAT
        tensor_shape {
          dim {
            size: 16
          }
        }
        float_val: 0.0
      }
    }
  }
}
node {
  name: "training/Adam/dense_4/bias/m"
  op: "VarHandleOp"
  attr {
    key: "_class"
    value {
      list {
        s: "loc:@dense_4/bias"
      }
    }
  }
  attr {
    key: "_output_shapes"
    value {
      list {
        shape {
        }
      }
    }
  }
  attr {
    key: "allowed_devices"
    value {
      list {
      }
    }
  }
  attr {
    key: "container"
    value {
      s: ""
    }
  }
  attr {
    key: "dtype"
    value {
      type: DT_FLOAT
    }
  }
  attr {
    key: "shape"
    value {
      shape {
        dim {
          size: 16
        }
      }
    }
  }
  attr {
    key: "shared_name"
    value {
      s: "training/Adam/dense_4/bias/m"
    }
  }
}
node {
  name: "training/Adam/dense_4/bias/m/IsInitialized/VarIsInitializedOp"
  op: "VarIsInitializedOp"
  input: "training/Adam/dense_4/bias/m"
  attr {
    key: "_class"
    value {
      list {
        s: "loc:@dense_4/bias"
      }
    }
  }
  attr {
    key: "_output_shapes"
    value {
      list {
        shape {
        }
      }
    }
  }
}
node {
  name: "training/Adam/dense_4/bias/m/Assign"
  op: "AssignVariableOp"
  input: "training/Adam/dense_4/bias/m"
  input: "training/Adam/dense_4/bias/m/Initializer/zeros"
  attr {
    key: "dtype"
    value {
      type: DT_FLOAT
    }
  }
}
node {
  name: "training/Adam/dense_4/bias/m/Read/ReadVariableOp"
  op: "ReadVariableOp"
  input: "training/Adam/dense_4/bias/m"
  attr {
    key: "_class"
    value {
      list {
        s: "loc:@dense_4/bias"
      }
    }
  }
  attr {
    key: "_output_shapes"
    value {
      list {
        shape {
          dim {
            size: 16
          }
        }
      }
    }
  }
  attr {
    key: "dtype"
    value {
      type: DT_FLOAT
    }
  }
}
node {
  name: "training/Adam/dense_5/kernel/m/Initializer/zeros"
  op: "Const"
  attr {
    key: "_class"
    value {
      list {
        s: "loc:@dense_5/kernel"
      }
    }
  }
  attr {
    key: "_output_shapes"
    value {
      list {
        shape {
          dim {
            size: 16
          }
          dim {
            size: 3
          }
        }
      }
    }
  }
  attr {
    key: "dtype"
    value {
      type: DT_FLOAT
    }
  }
  attr {
    key: "value"
    value {
      tensor {
        dtype: DT_FLOAT
        tensor_shape {
          dim {
            size: 16
          }
          dim {
            size: 3
          }
        }
        float_val: 0.0
      }
    }
  }
}
node {
  name: "training/Adam/dense_5/kernel/m"
  op: "VarHandleOp"
  attr {
    key: "_class"
    value {
      list {
        s: "loc:@dense_5/kernel"
      }
    }
  }
  attr {
    key: "_output_shapes"
    value {
      list {
        shape {
        }
      }
    }
  }
  attr {
    key: "allowed_devices"
    value {
      list {
      }
    }
  }
  attr {
    key: "container"
    value {
      s: ""
    }
  }
  attr {
    key: "dtype"
    value {
      type: DT_FLOAT
    }
  }
  attr {
    key: "shape"
    value {
      shape {
        dim {
          size: 16
        }
        dim {
          size: 3
        }
      }
    }
  }
  attr {
    key: "shared_name"
    value {
      s: "training/Adam/dense_5/kernel/m"
    }
  }
}
node {
  name: "training/Adam/dense_5/kernel/m/IsInitialized/VarIsInitializedOp"
  op: "VarIsInitializedOp"
  input: "training/Adam/dense_5/kernel/m"
  attr {
    key: "_class"
    value {
      list {
        s: "loc:@dense_5/kernel"
      }
    }
  }
  attr {
    key: "_output_shapes"
    value {
      list {
        shape {
        }
      }
    }
  }
}
node {
  name: "training/Adam/dense_5/kernel/m/Assign"
  op: "AssignVariableOp"
  input: "training/Adam/dense_5/kernel/m"
  input: "training/Adam/dense_5/kernel/m/Initializer/zeros"
  attr {
    key: "dtype"
    value {
      type: DT_FLOAT
    }
  }
}
node {
  name: "training/Adam/dense_5/kernel/m/Read/ReadVariableOp"
  op: "ReadVariableOp"
  input: "training/Adam/dense_5/kernel/m"
  attr {
    key: "_class"
    value {
      list {
        s: "loc:@dense_5/kernel"
      }
    }
  }
  attr {
    key: "_output_shapes"
    value {
      list {
        shape {
          dim {
            size: 16
          }
          dim {
            size: 3
          }
        }
      }
    }
  }
  attr {
    key: "dtype"
    value {
      type: DT_FLOAT
    }
  }
}
node {
  name: "training/Adam/dense_5/bias/m/Initializer/zeros"
  op: "Const"
  attr {
    key: "_class"
    value {
      list {
        s: "loc:@dense_5/bias"
      }
    }
  }
  attr {
    key: "_output_shapes"
    value {
      list {
        shape {
          dim {
            size: 3
          }
        }
      }
    }
  }
  attr {
    key: "dtype"
    value {
      type: DT_FLOAT
    }
  }
  attr {
    key: "value"
    value {
      tensor {
        dtype: DT_FLOAT
        tensor_shape {
          dim {
            size: 3
          }
        }
        float_val: 0.0
      }
    }
  }
}
node {
  name: "training/Adam/dense_5/bias/m"
  op: "VarHandleOp"
  attr {
    key: "_class"
    value {
      list {
        s: "loc:@dense_5/bias"
      }
    }
  }
  attr {
    key: "_output_shapes"
    value {
      list {
        shape {
        }
      }
    }
  }
  attr {
    key: "allowed_devices"
    value {
      list {
      }
    }
  }
  attr {
    key: "container"
    value {
      s: ""
    }
  }
  attr {
    key: "dtype"
    value {
      type: DT_FLOAT
    }
  }
  attr {
    key: "shape"
    value {
      shape {
        dim {
          size: 3
        }
      }
    }
  }
  attr {
    key: "shared_name"
    value {
      s: "training/Adam/dense_5/bias/m"
    }
  }
}
node {
  name: "training/Adam/dense_5/bias/m/IsInitialized/VarIsInitializedOp"
  op: "VarIsInitializedOp"
  input: "training/Adam/dense_5/bias/m"
  attr {
    key: "_class"
    value {
      list {
        s: "loc:@dense_5/bias"
      }
    }
  }
  attr {
    key: "_output_shapes"
    value {
      list {
        shape {
        }
      }
    }
  }
}
node {
  name: "training/Adam/dense_5/bias/m/Assign"
  op: "AssignVariableOp"
  input: "training/Adam/dense_5/bias/m"
  input: "training/Adam/dense_5/bias/m/Initializer/zeros"
  attr {
    key: "dtype"
    value {
      type: DT_FLOAT
    }
  }
}
node {
  name: "training/Adam/dense_5/bias/m/Read/ReadVariableOp"
  op: "ReadVariableOp"
  input: "training/Adam/dense_5/bias/m"
  attr {
    key: "_class"
    value {
      list {
        s: "loc:@dense_5/bias"
      }
    }
  }
  attr {
    key: "_output_shapes"
    value {
      list {
        shape {
          dim {
            size: 3
          }
        }
      }
    }
  }
  attr {
    key: "dtype"
    value {
      type: DT_FLOAT
    }
  }
}
node {
  name: "training/Adam/dense_4/kernel/v/Initializer/zeros"
  op: "Const"
  attr {
    key: "_class"
    value {
      list {
        s: "loc:@dense_4/kernel"
      }
    }
  }
  attr {
    key: "_output_shapes"
    value {
      list {
        shape {
          dim {
            size: 4
          }
          dim {
            size: 16
          }
        }
      }
    }
  }
  attr {
    key: "dtype"
    value {
      type: DT_FLOAT
    }
  }
  attr {
    key: "value"
    value {
      tensor {
        dtype: DT_FLOAT
        tensor_shape {
          dim {
            size: 4
          }
          dim {
            size: 16
          }
        }
        float_val: 0.0
      }
    }
  }
}
node {
  name: "training/Adam/dense_4/kernel/v"
  op: "VarHandleOp"
  attr {
    key: "_class"
    value {
      list {
        s: "loc:@dense_4/kernel"
      }
    }
  }
  attr {
    key: "_output_shapes"
    value {
      list {
        shape {
        }
      }
    }
  }
  attr {
    key: "allowed_devices"
    value {
      list {
      }
    }
  }
  attr {
    key: "container"
    value {
      s: ""
    }
  }
  attr {
    key: "dtype"
    value {
      type: DT_FLOAT
    }
  }
  attr {
    key: "shape"
    value {
      shape {
        dim {
          size: 4
        }
        dim {
          size: 16
        }
      }
    }
  }
  attr {
    key: "shared_name"
    value {
      s: "training/Adam/dense_4/kernel/v"
    }
  }
}
node {
  name: "training/Adam/dense_4/kernel/v/IsInitialized/VarIsInitializedOp"
  op: "VarIsInitializedOp"
  input: "training/Adam/dense_4/kernel/v"
  attr {
    key: "_class"
    value {
      list {
        s: "loc:@dense_4/kernel"
      }
    }
  }
  attr {
    key: "_output_shapes"
    value {
      list {
        shape {
        }
      }
    }
  }
}
node {
  name: "training/Adam/dense_4/kernel/v/Assign"
  op: "AssignVariableOp"
  input: "training/Adam/dense_4/kernel/v"
  input: "training/Adam/dense_4/kernel/v/Initializer/zeros"
  attr {
    key: "dtype"
    value {
      type: DT_FLOAT
    }
  }
}
node {
  name: "training/Adam/dense_4/kernel/v/Read/ReadVariableOp"
  op: "ReadVariableOp"
  input: "training/Adam/dense_4/kernel/v"
  attr {
    key: "_class"
    value {
      list {
        s: "loc:@dense_4/kernel"
      }
    }
  }
  attr {
    key: "_output_shapes"
    value {
      list {
        shape {
          dim {
            size: 4
          }
          dim {
            size: 16
          }
        }
      }
    }
  }
  attr {
    key: "dtype"
    value {
      type: DT_FLOAT
    }
  }
}
node {
  name: "training/Adam/dense_4/bias/v/Initializer/zeros"
  op: "Const"
  attr {
    key: "_class"
    value {
      list {
        s: "loc:@dense_4/bias"
      }
    }
  }
  attr {
    key: "_output_shapes"
    value {
      list {
        shape {
          dim {
            size: 16
          }
        }
      }
    }
  }
  attr {
    key: "dtype"
    value {
      type: DT_FLOAT
    }
  }
  attr {
    key: "value"
    value {
      tensor {
        dtype: DT_FLOAT
        tensor_shape {
          dim {
            size: 16
          }
        }
        float_val: 0.0
      }
    }
  }
}
node {
  name: "training/Adam/dense_4/bias/v"
  op: "VarHandleOp"
  attr {
    key: "_class"
    value {
      list {
        s: "loc:@dense_4/bias"
      }
    }
  }
  attr {
    key: "_output_shapes"
    value {
      list {
        shape {
        }
      }
    }
  }
  attr {
    key: "allowed_devices"
    value {
      list {
      }
    }
  }
  attr {
    key: "container"
    value {
      s: ""
    }
  }
  attr {
    key: "dtype"
    value {
      type: DT_FLOAT
    }
  }
  attr {
    key: "shape"
    value {
      shape {
        dim {
          size: 16
        }
      }
    }
  }
  attr {
    key: "shared_name"
    value {
      s: "training/Adam/dense_4/bias/v"
    }
  }
}
node {
  name: "training/Adam/dense_4/bias/v/IsInitialized/VarIsInitializedOp"
  op: "VarIsInitializedOp"
  input: "training/Adam/dense_4/bias/v"
  attr {
    key: "_class"
    value {
      list {
        s: "loc:@dense_4/bias"
      }
    }
  }
  attr {
    key: "_output_shapes"
    value {
      list {
        shape {
        }
      }
    }
  }
}
node {
  name: "training/Adam/dense_4/bias/v/Assign"
  op: "AssignVariableOp"
  input: "training/Adam/dense_4/bias/v"
  input: "training/Adam/dense_4/bias/v/Initializer/zeros"
  attr {
    key: "dtype"
    value {
      type: DT_FLOAT
    }
  }
}
node {
  name: "training/Adam/dense_4/bias/v/Read/ReadVariableOp"
  op: "ReadVariableOp"
  input: "training/Adam/dense_4/bias/v"
  attr {
    key: "_class"
    value {
      list {
        s: "loc:@dense_4/bias"
      }
    }
  }
  attr {
    key: "_output_shapes"
    value {
      list {
        shape {
          dim {
            size: 16
          }
        }
      }
    }
  }
  attr {
    key: "dtype"
    value {
      type: DT_FLOAT
    }
  }
}
node {
  name: "training/Adam/dense_5/kernel/v/Initializer/zeros"
  op: "Const"
  attr {
    key: "_class"
    value {
      list {
        s: "loc:@dense_5/kernel"
      }
    }
  }
  attr {
    key: "_output_shapes"
    value {
      list {
        shape {
          dim {
            size: 16
          }
          dim {
            size: 3
          }
        }
      }
    }
  }
  attr {
    key: "dtype"
    value {
      type: DT_FLOAT
    }
  }
  attr {
    key: "value"
    value {
      tensor {
        dtype: DT_FLOAT
        tensor_shape {
          dim {
            size: 16
          }
          dim {
            size: 3
          }
        }
        float_val: 0.0
      }
    }
  }
}
node {
  name: "training/Adam/dense_5/kernel/v"
  op: "VarHandleOp"
  attr {
    key: "_class"
    value {
      list {
        s: "loc:@dense_5/kernel"
      }
    }
  }
  attr {
    key: "_output_shapes"
    value {
      list {
        shape {
        }
      }
    }
  }
  attr {
    key: "allowed_devices"
    value {
      list {
      }
    }
  }
  attr {
    key: "container"
    value {
      s: ""
    }
  }
  attr {
    key: "dtype"
    value {
      type: DT_FLOAT
    }
  }
  attr {
    key: "shape"
    value {
      shape {
        dim {
          size: 16
        }
        dim {
          size: 3
        }
      }
    }
  }
  attr {
    key: "shared_name"
    value {
      s: "training/Adam/dense_5/kernel/v"
    }
  }
}
node {
  name: "training/Adam/dense_5/kernel/v/IsInitialized/VarIsInitializedOp"
  op: "VarIsInitializedOp"
  input: "training/Adam/dense_5/kernel/v"
  attr {
    key: "_class"
    value {
      list {
        s: "loc:@dense_5/kernel"
      }
    }
  }
  attr {
    key: "_output_shapes"
    value {
      list {
        shape {
        }
      }
    }
  }
}
node {
  name: "training/Adam/dense_5/kernel/v/Assign"
  op: "AssignVariableOp"
  input: "training/Adam/dense_5/kernel/v"
  input: "training/Adam/dense_5/kernel/v/Initializer/zeros"
  attr {
    key: "dtype"
    value {
      type: DT_FLOAT
    }
  }
}
node {
  name: "training/Adam/dense_5/kernel/v/Read/ReadVariableOp"
  op: "ReadVariableOp"
  input: "training/Adam/dense_5/kernel/v"
  attr {
    key: "_class"
    value {
      list {
        s: "loc:@dense_5/kernel"
      }
    }
  }
  attr {
    key: "_output_shapes"
    value {
      list {
        shape {
          dim {
            size: 16
          }
          dim {
            size: 3
          }
        }
      }
    }
  }
  attr {
    key: "dtype"
    value {
      type: DT_FLOAT
    }
  }
}
node {
  name: "training/Adam/dense_5/bias/v/Initializer/zeros"
  op: "Const"
  attr {
    key: "_class"
    value {
      list {
        s: "loc:@dense_5/bias"
      }
    }
  }
  attr {
    key: "_output_shapes"
    value {
      list {
        shape {
          dim {
            size: 3
          }
        }
      }
    }
  }
  attr {
    key: "dtype"
    value {
      type: DT_FLOAT
    }
  }
  attr {
    key: "value"
    value {
      tensor {
        dtype: DT_FLOAT
        tensor_shape {
          dim {
            size: 3
          }
        }
        float_val: 0.0
      }
    }
  }
}
node {
  name: "training/Adam/dense_5/bias/v"
  op: "VarHandleOp"
  attr {
    key: "_class"
    value {
      list {
        s: "loc:@dense_5/bias"
      }
    }
  }
  attr {
    key: "_output_shapes"
    value {
      list {
        shape {
        }
      }
    }
  }
  attr {
    key: "allowed_devices"
    value {
      list {
      }
    }
  }
  attr {
    key: "container"
    value {
      s: ""
    }
  }
  attr {
    key: "dtype"
    value {
      type: DT_FLOAT
    }
  }
  attr {
    key: "shape"
    value {
      shape {
        dim {
          size: 3
        }
      }
    }
  }
  attr {
    key: "shared_name"
    value {
      s: "training/Adam/dense_5/bias/v"
    }
  }
}
node {
  name: "training/Adam/dense_5/bias/v/IsInitialized/VarIsInitializedOp"
  op: "VarIsInitializedOp"
  input: "training/Adam/dense_5/bias/v"
  attr {
    key: "_class"
    value {
      list {
        s: "loc:@dense_5/bias"
      }
    }
  }
  attr {
    key: "_output_shapes"
    value {
      list {
        shape {
        }
      }
    }
  }
}
node {
  name: "training/Adam/dense_5/bias/v/Assign"
  op: "AssignVariableOp"
  input: "training/Adam/dense_5/bias/v"
  input: "training/Adam/dense_5/bias/v/Initializer/zeros"
  attr {
    key: "dtype"
    value {
      type: DT_FLOAT
    }
  }
}
node {
  name: "training/Adam/dense_5/bias/v/Read/ReadVariableOp"
  op: "ReadVariableOp"
  input: "training/Adam/dense_5/bias/v"
  attr {
    key: "_class"
    value {
      list {
        s: "loc:@dense_5/bias"
      }
    }
  }
  attr {
    key: "_output_shapes"
    value {
      list {
        shape {
          dim {
            size: 3
          }
        }
      }
    }
  }
  attr {
    key: "dtype"
    value {
      type: DT_FLOAT
    }
  }
}
node {
  name: "training/Adam/Identity/ReadVariableOp"
  op: "ReadVariableOp"
  input: "training/Adam/learning_rate"
  attr {
    key: "_output_shapes"
    value {
      list {
        shape {
        }
      }
    }
  }
  attr {
    key: "dtype"
    value {
      type: DT_FLOAT
    }
  }
}
node {
  name: "training/Adam/Identity"
  op: "Identity"
  input: "training/Adam/Identity/ReadVariableOp"
  attr {
    key: "T"
    value {
      type: DT_FLOAT
    }
  }
  attr {
    key: "_output_shapes"
    value {
      list {
        shape {
        }
      }
    }
  }
}
node {
  name: "training/Adam/ReadVariableOp"
  op: "ReadVariableOp"
  input: "global_step"
  attr {
    key: "_output_shapes"
    value {
      list {
        shape {
        }
      }
    }
  }
  attr {
    key: "dtype"
    value {
      type: DT_INT64
    }
  }
}
node {
  name: "training/Adam/add/y"
  op: "Const"
  attr {
    key: "_output_shapes"
    value {
      list {
        shape {
        }
      }
    }
  }
  attr {
    key: "dtype"
    value {
      type: DT_INT64
    }
  }
  attr {
    key: "value"
    value {
      tensor {
        dtype: DT_INT64
        tensor_shape {
        }
        int64_val: 1
      }
    }
  }
}
node {
  name: "training/Adam/add"
  op: "AddV2"
  input: "training/Adam/ReadVariableOp"
  input: "training/Adam/add/y"
  attr {
    key: "T"
    value {
      type: DT_INT64
    }
  }
  attr {
    key: "_output_shapes"
    value {
      list {
        shape {
        }
      }
    }
  }
}
node {
  name: "training/Adam/Cast"
  op: "Cast"
  input: "training/Adam/add"
  attr {
    key: "DstT"
    value {
      type: DT_FLOAT
    }
  }
  attr {
    key: "SrcT"
    value {
      type: DT_INT64
    }
  }
  attr {
    key: "Truncate"
    value {
      b: false
    }
  }
  attr {
    key: "_output_shapes"
    value {
      list {
        shape {
        }
      }
    }
  }
}
node {
  name: "training/Adam/Identity_1/ReadVariableOp"
  op: "ReadVariableOp"
  input: "training/Adam/beta_1"
  attr {
    key: "_output_shapes"
    value {
      list {
        shape {
        }
      }
    }
  }
  attr {
    key: "dtype"
    value {
      type: DT_FLOAT
    }
  }
}
node {
  name: "training/Adam/Identity_1"
  op: "Identity"
  input: "training/Adam/Identity_1/ReadVariableOp"
  attr {
    key: "T"
    value {
      type: DT_FLOAT
    }
  }
  attr {
    key: "_output_shapes"
    value {
      list {
        shape {
        }
      }
    }
  }
}
node {
  name: "training/Adam/Identity_2/ReadVariableOp"
  op: "ReadVariableOp"
  input: "training/Adam/beta_2"
  attr {
    key: "_output_shapes"
    value {
      list {
        shape {
        }
      }
    }
  }
  attr {
    key: "dtype"
    value {
      type: DT_FLOAT
    }
  }
}
node {
  name: "training/Adam/Identity_2"
  op: "Identity"
  input: "training/Adam/Identity_2/ReadVariableOp"
  attr {
    key: "T"
    value {
      type: DT_FLOAT
    }
  }
  attr {
    key: "_output_shapes"
    value {
      list {
        shape {
        }
      }
    }
  }
}
node {
  name: "training/Adam/Pow"
  op: "Pow"
  input: "training/Adam/Identity_1"
  input: "training/Adam/Cast"
  attr {
    key: "T"
    value {
      type: DT_FLOAT
    }
  }
  attr {
    key: "_output_shapes"
    value {
      list {
        shape {
        }
      }
    }
  }
}
node {
  name: "training/Adam/Pow_1"
  op: "Pow"
  input: "training/Adam/Identity_2"
  input: "training/Adam/Cast"
  attr {
    key: "T"
    value {
      type: DT_FLOAT
    }
  }
  attr {
    key: "_output_shapes"
    value {
      list {
        shape {
        }
      }
    }
  }
}
node {
  name: "training/Adam/sub/x"
  op: "Const"
  attr {
    key: "_output_shapes"
    value {
      list {
        shape {
        }
      }
    }
  }
  attr {
    key: "dtype"
    value {
      type: DT_FLOAT
    }
  }
  attr {
    key: "value"
    value {
      tensor {
        dtype: DT_FLOAT
        tensor_shape {
        }
        float_val: 1.0
      }
    }
  }
}
node {
  name: "training/Adam/sub"
  op: "Sub"
  input: "training/Adam/sub/x"
  input: "training/Adam/Pow_1"
  attr {
    key: "T"
    value {
      type: DT_FLOAT
    }
  }
  attr {
    key: "_output_shapes"
    value {
      list {
        shape {
        }
      }
    }
  }
}
node {
  name: "training/Adam/Sqrt"
  op: "Sqrt"
  input: "training/Adam/sub"
  attr {
    key: "T"
    value {
      type: DT_FLOAT
    }
  }
  attr {
    key: "_output_shapes"
    value {
      list {
        shape {
        }
      }
    }
  }
}
node {
  name: "training/Adam/sub_1/x"
  op: "Const"
  attr {
    key: "_output_shapes"
    value {
      list {
        shape {
        }
      }
    }
  }
  attr {
    key: "dtype"
    value {
      type: DT_FLOAT
    }
  }
  attr {
    key: "value"
    value {
      tensor {
        dtype: DT_FLOAT
        tensor_shape {
        }
        float_val: 1.0
      }
    }
  }
}
node {
  name: "training/Adam/sub_1"
  op: "Sub"
  input: "training/Adam/sub_1/x"
  input: "training/Adam/Pow"
  attr {
    key: "T"
    value {
      type: DT_FLOAT
    }
  }
  attr {
    key: "_output_shapes"
    value {
      list {
        shape {
        }
      }
    }
  }
}
node {
  name: "training/Adam/truediv"
  op: "RealDiv"
  input: "training/Adam/Sqrt"
  input: "training/Adam/sub_1"
  attr {
    key: "T"
    value {
      type: DT_FLOAT
    }
  }
  attr {
    key: "_output_shapes"
    value {
      list {
        shape {
        }
      }
    }
  }
}
node {
  name: "training/Adam/mul"
  op: "Mul"
  input: "training/Adam/Identity"
  input: "training/Adam/truediv"
  attr {
    key: "T"
    value {
      type: DT_FLOAT
    }
  }
  attr {
    key: "_output_shapes"
    value {
      list {
        shape {
        }
      }
    }
  }
}
node {
  name: "training/Adam/Const"
  op: "Const"
  attr {
    key: "_output_shapes"
    value {
      list {
        shape {
        }
      }
    }
  }
  attr {
    key: "dtype"
    value {
      type: DT_FLOAT
    }
  }
  attr {
    key: "value"
    value {
      tensor {
        dtype: DT_FLOAT
        tensor_shape {
        }
        float_val: 1.0000000116860974e-07
      }
    }
  }
}
node {
  name: "training/Adam/sub_2/x"
  op: "Const"
  attr {
    key: "_output_shapes"
    value {
      list {
        shape {
        }
      }
    }
  }
  attr {
    key: "dtype"
    value {
      type: DT_FLOAT
    }
  }
  attr {
    key: "value"
    value {
      tensor {
        dtype: DT_FLOAT
        tensor_shape {
        }
        float_val: 1.0
      }
    }
  }
}
node {
  name: "training/Adam/sub_2"
  op: "Sub"
  input: "training/Adam/sub_2/x"
  input: "training/Adam/Identity_1"
  attr {
    key: "T"
    value {
      type: DT_FLOAT
    }
  }
  attr {
    key: "_output_shapes"
    value {
      list {
        shape {
        }
      }
    }
  }
}
node {
  name: "training/Adam/sub_3/x"
  op: "Const"
  attr {
    key: "_output_shapes"
    value {
      list {
        shape {
        }
      }
    }
  }
  attr {
    key: "dtype"
    value {
      type: DT_FLOAT
    }
  }
  attr {
    key: "value"
    value {
      tensor {
        dtype: DT_FLOAT
        tensor_shape {
        }
        float_val: 1.0
      }
    }
  }
}
node {
  name: "training/Adam/sub_3"
  op: "Sub"
  input: "training/Adam/sub_3/x"
  input: "training/Adam/Identity_2"
  attr {
    key: "T"
    value {
      type: DT_FLOAT
    }
  }
  attr {
    key: "_output_shapes"
    value {
      list {
        shape {
        }
      }
    }
  }
}
node {
  name: "training/Adam/Adam/update_dense_4/kernel/ResourceApplyAdam"
  op: "ResourceApplyAdam"
  input: "dense_4/kernel"
  input: "training/Adam/dense_4/kernel/m"
  input: "training/Adam/dense_4/kernel/v"
  input: "training/Adam/Pow"
  input: "training/Adam/Pow_1"
  input: "training/Adam/Identity"
  input: "training/Adam/Identity_1"
  input: "training/Adam/Identity_2"
  input: "training/Adam/Const"
  input: "training/Adam/gradients/gradients/dense_4/MatMul_grad/MatMul_1"
  attr {
    key: "T"
    value {
      type: DT_FLOAT
    }
  }
  attr {
    key: "_class"
    value {
      list {
        s: "loc:@dense_4/kernel"
      }
    }
  }
  attr {
    key: "use_locking"
    value {
      b: true
    }
  }
  attr {
    key: "use_nesterov"
    value {
      b: false
    }
  }
}
node {
  name: "training/Adam/Adam/update_dense_4/bias/ResourceApplyAdam"
  op: "ResourceApplyAdam"
  input: "dense_4/bias"
  input: "training/Adam/dense_4/bias/m"
  input: "training/Adam/dense_4/bias/v"
  input: "training/Adam/Pow"
  input: "training/Adam/Pow_1"
  input: "training/Adam/Identity"
  input: "training/Adam/Identity_1"
  input: "training/Adam/Identity_2"
  input: "training/Adam/Const"
  input: "training/Adam/gradients/gradients/dense_4/BiasAdd_grad/BiasAddGrad"
  attr {
    key: "T"
    value {
      type: DT_FLOAT
    }
  }
  attr {
    key: "_class"
    value {
      list {
        s: "loc:@dense_4/bias"
      }
    }
  }
  attr {
    key: "use_locking"
    value {
      b: true
    }
  }
  attr {
    key: "use_nesterov"
    value {
      b: false
    }
  }
}
node {
  name: "training/Adam/Adam/update_dense_5/kernel/ResourceApplyAdam"
  op: "ResourceApplyAdam"
  input: "dense_5/kernel"
  input: "training/Adam/dense_5/kernel/m"
  input: "training/Adam/dense_5/kernel/v"
  input: "training/Adam/Pow"
  input: "training/Adam/Pow_1"
  input: "training/Adam/Identity"
  input: "training/Adam/Identity_1"
  input: "training/Adam/Identity_2"
  input: "training/Adam/Const"
  input: "training/Adam/gradients/gradients/dense_5/MatMul_grad/MatMul_1"
  attr {
    key: "T"
    value {
      type: DT_FLOAT
    }
  }
  attr {
    key: "_class"
    value {
      list {
        s: "loc:@dense_5/kernel"
      }
    }
  }
  attr {
    key: "use_locking"
    value {
      b: true
    }
  }
  attr {
    key: "use_nesterov"
    value {
      b: false
    }
  }
}
node {
  name: "training/Adam/Adam/update_dense_5/bias/ResourceApplyAdam"
  op: "ResourceApplyAdam"
  input: "dense_5/bias"
  input: "training/Adam/dense_5/bias/m"
  input: "training/Adam/dense_5/bias/v"
  input: "training/Adam/Pow"
  input: "training/Adam/Pow_1"
  input: "training/Adam/Identity"
  input: "training/Adam/Identity_1"
  input: "training/Adam/Identity_2"
  input: "training/Adam/Const"
  input: "training/Adam/gradients/gradients/dense_5/BiasAdd_grad/BiasAddGrad"
  attr {
    key: "T"
    value {
      type: DT_FLOAT
    }
  }
  attr {
    key: "_class"
    value {
      list {
        s: "loc:@dense_5/bias"
      }
    }
  }
  attr {
    key: "use_locking"
    value {
      b: true
    }
  }
  attr {
    key: "use_nesterov"
    value {
      b: false
    }
  }
}
node {
  name: "training/Adam/Adam/Const"
  op: "Const"
  input: "^training/Adam/Adam/update_dense_4/bias/ResourceApplyAdam"
  input: "^training/Adam/Adam/update_dense_4/kernel/ResourceApplyAdam"
  input: "^training/Adam/Adam/update_dense_5/bias/ResourceApplyAdam"
  input: "^training/Adam/Adam/update_dense_5/kernel/ResourceApplyAdam"
  attr {
    key: "_output_shapes"
    value {
      list {
        shape {
        }
      }
    }
  }
  attr {
    key: "dtype"
    value {
      type: DT_INT64
    }
  }
  attr {
    key: "value"
    value {
      tensor {
        dtype: DT_INT64
        tensor_shape {
        }
        int64_val: 1
      }
    }
  }
}
node {
  name: "training/Adam/Adam/AssignAddVariableOp"
  op: "AssignAddVariableOp"
  input: "global_step"
  input: "training/Adam/Adam/Const"
  attr {
    key: "dtype"
    value {
      type: DT_INT64
    }
  }
}
node {
  name: "training_1/group_deps"
  op: "NoOp"
  input: "^loss/mul"
  input: "^training/Adam/Adam/AssignAddVariableOp"
}
node {
  name: "Const_5"
  op: "Const"
  device: "/device:CPU:0"
  attr {
    key: "_output_shapes"
    value {
      list {
        shape {
        }
      }
    }
  }
  attr {
    key: "dtype"
    value {
      type: DT_STRING
    }
  }
  attr {
    key: "value"
    value {
      tensor {
        dtype: DT_STRING
        tensor_shape {
        }
        string_val: "…"
      }
    }
  }
}
node {
  name: "save/filename/input"
  op: "Const"
  attr {
    key: "_output_shapes"
    value {
      list {
        shape {
        }
      }
    }
  }
  attr {
    key: "dtype"
    value {
      type: DT_STRING
    }
  }
  attr {
    key: "value"
    value {
      tensor {
        dtype: DT_STRING
        tensor_shape {
        }
        string_val: "model"
      }
    }
  }
}
node {
  name: "save/filename"
  op: "PlaceholderWithDefault"
  input: "save/filename/input"
  attr {
    key: "_output_shapes"
    value {
      list {
        shape {
        }
      }
    }
  }
  attr {
    key: "dtype"
    value {
      type: DT_STRING
    }
  }
  attr {
    key: "shape"
    value {
      shape {
      }
    }
  }
}
node {
  name: "save/Const"
  op: "PlaceholderWithDefault"
  input: "save/filename"
  attr {
    key: "_output_shapes"
    value {
      list {
        shape {
        }
      }
    }
  }
  attr {
    key: "dtype"
    value {
      type: DT_STRING
    }
  }
  attr {
    key: "shape"
    value {
      shape {
      }
    }
  }
}
node {
  name: "save/StaticRegexFullMatch"
  op: "StaticRegexFullMatch"
  input: "save/Const"
  device: "/device:CPU:*"
  attr {
    key: "_output_shapes"
    value {
      list {
        shape {
        }
      }
    }
  }
  attr {
    key: "pattern"
    value {
      s: "^s3://.*"
    }
  }
}
node {
  name: "save/Const_1"
  op: "Const"
  device: "/device:CPU:*"
  attr {
    key: "_output_shapes"
    value {
      list {
        shape {
        }
      }
    }
  }
  attr {
    key: "dtype"
    value {
      type: DT_STRING
    }
  }
  attr {
    key: "value"
    value {
      tensor {
        dtype: DT_STRING
        tensor_shape {
        }
        string_val: ".part"
      }
    }
  }
}
node {
  name: "save/Const_2"
  op: "Const"
  device: "/device:CPU:*"
  attr {
    key: "_output_shapes"
    value {
      list {
        shape {
        }
      }
    }
  }
  attr {
    key: "dtype"
    value {
      type: DT_STRING
    }
  }
  attr {
    key: "value"
    value {
      tensor {
        dtype: DT_STRING
        tensor_shape {
        }
        string_val: "_temp_e259dd86e6f74bad84d3d926b9489c53/part"
      }
    }
  }
}
node {
  name: "save/Select"
  op: "Select"
  input: "save/StaticRegexFullMatch"
  input: "save/Const_1"
  input: "save/Const_2"
  device: "/device:CPU:*"
  attr {
    key: "T"
    value {
      type: DT_STRING
    }
  }
  attr {
    key: "_output_shapes"
    value {
      list {
        shape {
        }
      }
    }
  }
}
node {
  name: "save/StringJoin"
  op: "StringJoin"
  input: "save/Const"
  input: "save/Select"
  device: "/device:CPU:*"
  attr {
    key: "N"
    value {
      i: 2
    }
  }
  attr {
    key: "_output_shapes"
    value {
      list {
        shape {
        }
      }
    }
  }
  attr {
    key: "separator"
    value {
      s: ""
    }
  }
}
node {
  name: "save/num_shards"
  op: "Const"
  attr {
    key: "_output_shapes"
    value {
      list {
        shape {
        }
      }
    }
  }
  attr {
    key: "dtype"
    value {
      type: DT_INT32
    }
  }
  attr {
    key: "value"
    value {
      tensor {
        dtype: DT_INT32
        tensor_shape {
        }
        int_val: 2
      }
    }
  }
}
node {
  name: "save/ShardedFilename/shard"
  op: "Const"
  device: "/device:CPU:0"
  attr {
    key: "_output_shapes"
    value {
      list {
        shape {
        }
      }
    }
  }
  attr {
    key: "dtype"
    value {
      type: DT_INT32
    }
  }
  attr {
    key: "value"
    value {
      tensor {
        dtype: DT_INT32
        tensor_shape {
        }
        int_val: 0
      }
    }
  }
}
node {
  name: "save/ShardedFilename"
  op: "ShardedFilename"
  input: "save/StringJoin"
  input: "save/ShardedFilename/shard"
  input: "save/num_shards"
  device: "/device:CPU:0"
  attr {
    key: "_output_shapes"
    value {
      list {
        shape {
        }
      }
    }
  }
}
node {
  name: "save/SaveV2/tensor_names"
  op: "Const"
  device: "/device:CPU:0"
  attr {
    key: "_output_shapes"
    value {
      list {
        shape {
          dim {
            size: 17
          }
        }
      }
    }
  }
  attr {
    key: "dtype"
    value {
      type: DT_STRING
    }
  }
  attr {
    key: "value"
    value {
      tensor {
        dtype: DT_STRING
        tensor_shape {
          dim {
            size: 17
          }
        }
        string_val: "estimator_global_step/.ATTRIBUTES/VARIABLE_VALUE"
        string_val: "layer_with_weights-0/bias/.ATTRIBUTES/VARIABLE_VALUE"
        string_val: "layer_with_weights-0/bias/.OPTIMIZER_SLOT/optimizer/m/.ATTRIBUTES/VARIABLE_VALUE"
        string_val: "layer_with_weights-0/bias/.OPTIMIZER_SLOT/optimizer/v/.ATTRIBUTES/VARIABLE_VALUE"
        string_val: "layer_with_weights-0/kernel/.ATTRIBUTES/VARIABLE_VALUE"
        string_val: "layer_with_weights-0/kernel/.OPTIMIZER_SLOT/optimizer/m/.ATTRIBUTES/VARIABLE_VALUE"
        string_val: "layer_with_weights-0/kernel/.OPTIMIZER_SLOT/optimizer/v/.ATTRIBUTES/VARIABLE_VALUE"
        string_val: "layer_with_weights-1/bias/.ATTRIBUTES/VARIABLE_VALUE"
        string_val: "layer_with_weights-1/bias/.OPTIMIZER_SLOT/optimizer/m/.ATTRIBUTES/VARIABLE_VALUE"
        string_val: "layer_with_weights-1/bias/.OPTIMIZER_SLOT/optimizer/v/.ATTRIBUTES/VARIABLE_VALUE"
        string_val: "layer_with_weights-1/kernel/.ATTRIBUTES/VARIABLE_VALUE"
        string_val: "layer_with_weights-1/kernel/.OPTIMIZER_SLOT/optimizer/m/.ATTRIBUTES/VARIABLE_VALUE"
        string_val: "layer_with_weights-1/kernel/.OPTIMIZER_SLOT/optimizer/v/.ATTRIBUTES/VARIABLE_VALUE"
        string_val: "optimizer/beta_1/.ATTRIBUTES/VARIABLE_VALUE"
        string_val: "optimizer/beta_2/.ATTRIBUTES/VARIABLE_VALUE"
        string_val: "optimizer/decay/.ATTRIBUTES/VARIABLE_VALUE"
        string_val: "optimizer/learning_rate/.ATTRIBUTES/VARIABLE_VALUE"
      }
    }
  }
}
node {
  name: "save/SaveV2/shape_and_slices"
  op: "Const"
  device: "/device:CPU:0"
  attr {
    key: "_output_shapes"
    value {
      list {
        shape {
          dim {
            size: 17
          }
        }
      }
    }
  }
  attr {
    key: "dtype"
    value {
      type: DT_STRING
    }
  }
  attr {
    key: "value"
    value {
      tensor {
        dtype: DT_STRING
        tensor_shape {
          dim {
            size: 17
          }
        }
        string_val: ""
        string_val: ""
        string_val: ""
        string_val: ""
        string_val: ""
        string_val: ""
        string_val: ""
        string_val: ""
        string_val: ""
        string_val: ""
        string_val: ""
        string_val: ""
        string_val: ""
        string_val: ""
        string_val: ""
        string_val: ""
        string_val: ""
      }
    }
  }
}
node {
  name: "save/SaveV2"
  op: "SaveV2"
  input: "save/ShardedFilename"
  input: "save/SaveV2/tensor_names"
  input: "save/SaveV2/shape_and_slices"
  input: "global_step/Read/ReadVariableOp"
  input: "dense_4/bias/Read/ReadVariableOp"
  input: "training/Adam/dense_4/bias/m/Read/ReadVariableOp"
  input: "training/Adam/dense_4/bias/v/Read/ReadVariableOp"
  input: "dense_4/kernel/Read/ReadVariableOp"
  input: "training/Adam/dense_4/kernel/m/Read/ReadVariableOp"
  input: "training/Adam/dense_4/kernel/v/Read/ReadVariableOp"
  input: "dense_5/bias/Read/ReadVariableOp"
  input: "training/Adam/dense_5/bias/m/Read/ReadVariableOp"
  input: "training/Adam/dense_5/bias/v/Read/ReadVariableOp"
  input: "dense_5/kernel/Read/ReadVariableOp"
  input: "training/Adam/dense_5/kernel/m/Read/ReadVariableOp"
  input: "training/Adam/dense_5/kernel/v/Read/ReadVariableOp"
  input: "training/Adam/beta_1/Read/ReadVariableOp"
  input: "training/Adam/beta_2/Read/ReadVariableOp"
  input: "training/Adam/decay/Read/ReadVariableOp"
  input: "training/Adam/learning_rate/Read/ReadVariableOp"
  device: "/device:CPU:0"
  attr {
    key: "dtypes"
    value {
      list {
        type: DT_INT64
        type: DT_FLOAT
        type: DT_FLOAT
        type: DT_FLOAT
        type: DT_FLOAT
        type: DT_FLOAT
        type: DT_FLOAT
        type: DT_FLOAT
        type: DT_FLOAT
        type: DT_FLOAT
        type: DT_FLOAT
        type: DT_FLOAT
        type: DT_FLOAT
        type: DT_FLOAT
        type: DT_FLOAT
        type: DT_FLOAT
        type: DT_FLOAT
      }
    }
  }
}
node {
  name: "save/control_dependency"
  op: "Identity"
  input: "save/ShardedFilename"
  input: "^save/SaveV2"
  device: "/device:CPU:0"
  attr {
    key: "T"
    value {
      type: DT_STRING
    }
  }
  attr {
    key: "_class"
    value {
      list {
        s: "loc:@save/ShardedFilename"
      }
    }
  }
  attr {
    key: "_output_shapes"
    value {
      list {
        shape {
        }
      }
    }
  }
}
node {
  name: "save/ShardedFilename_1/shard"
  op: "Const"
  device: "/device:CPU:0"
  attr {
    key: "_output_shapes"
    value {
      list {
        shape {
        }
      }
    }
  }
  attr {
    key: "dtype"
    value {
      type: DT_INT32
    }
  }
  attr {
    key: "value"
    value {
      tensor {
        dtype: DT_INT32
        tensor_shape {
        }
        int_val: 1
      }
    }
  }
}
node {
  name: "save/ShardedFilename_1"
  op: "ShardedFilename"
  input: "save/StringJoin"
  input: "save/ShardedFilename_1/shard"
  input: "save/num_shards"
  device: "/device:CPU:0"
  attr {
    key: "_output_shapes"
    value {
      list {
        shape {
        }
      }
    }
  }
}
node {
  name: "save/SaveV2_1/tensor_names"
  op: "Const"
  device: "/device:CPU:0"
  attr {
    key: "_output_shapes"
    value {
      list {
        shape {
          dim {
            size: 1
          }
        }
      }
    }
  }
  attr {
    key: "dtype"
    value {
      type: DT_STRING
    }
  }
  attr {
    key: "value"
    value {
      tensor {
        dtype: DT_STRING
        tensor_shape {
          dim {
            size: 1
          }
        }
        string_val: "_CHECKPOINTABLE_OBJECT_GRAPH"
      }
    }
  }
}
node {
  name: "save/SaveV2_1/shape_and_slices"
  op: "Const"
  device: "/device:CPU:0"
  attr {
    key: "_output_shapes"
    value {
      list {
        shape {
          dim {
            size: 1
          }
        }
      }
    }
  }
  attr {
    key: "dtype"
    value {
      type: DT_STRING
    }
  }
  attr {
    key: "value"
    value {
      tensor {
        dtype: DT_STRING
        tensor_shape {
          dim {
            size: 1
          }
        }
        string_val: ""
      }
    }
  }
}
node {
  name: "save/SaveV2_1"
  op: "SaveV2"
  input: "save/ShardedFilename_1"
  input: "save/SaveV2_1/tensor_names"
  input: "save/SaveV2_1/shape_and_slices"
  input: "Const_5"
  device: "/device:CPU:0"
  attr {
    key: "dtypes"
    value {
      list {
        type: DT_STRING
      }
    }
  }
}
node {
  name: "save/control_dependency_1"
  op: "Identity"
  input: "save/ShardedFilename_1"
  input: "^save/SaveV2_1"
  device: "/device:CPU:0"
  attr {
    key: "T"
    value {
      type: DT_STRING
    }
  }
  attr {
    key: "_class"
    value {
      list {
        s: "loc:@save/ShardedFilename_1"
      }
    }
  }
  attr {
    key: "_output_shapes"
    value {
      list {
        shape {
        }
      }
    }
  }
}
node {
  name: "save/MergeV2Checkpoints/checkpoint_prefixes"
  op: "Pack"
  input: "save/ShardedFilename"
  input: "save/ShardedFilename_1"
  input: "^save/control_dependency"
  input: "^save/control_dependency_1"
  device: "/device:CPU:0"
  attr {
    key: "N"
    value {
      i: 2
    }
  }
  attr {
    key: "T"
    value {
      type: DT_STRING
    }
  }
  attr {
    key: "_output_shapes"
    value {
      list {
        shape {
          dim {
            size: 2
          }
        }
      }
    }
  }
  attr {
    key: "axis"
    value {
      i: 0
    }
  }
}
node {
  name: "save/MergeV2Checkpoints"
  op: "MergeV2Checkpoints"
  input: "save/MergeV2Checkpoints/checkpoint_prefixes"
  input: "save/Const"
  device: "/device:CPU:0"
  attr {
    key: "delete_old_dirs"
    value {
      b: true
    }
  }
}
node {
  name: "save/Identity"
  op: "Identity"
  input: "save/Const"
  input: "^save/MergeV2Checkpoints"
  input: "^save/control_dependency"
  input: "^save/control_dependency_1"
  device: "/device:CPU:0"
  attr {
    key: "T"
    value {
      type: DT_STRING
    }
  }
  attr {
    key: "_output_shapes"
    value {
      list {
        shape {
        }
      }
    }
  }
}
node {
  name: "save/RestoreV2/tensor_names"
  op: "Const"
  device: "/device:CPU:0"
  attr {
    key: "_output_shapes"
    value {
      list {
        shape {
          dim {
            size: 17
          }
        }
      }
    }
  }
  attr {
    key: "dtype"
    value {
      type: DT_STRING
    }
  }
  attr {
    key: "value"
    value {
      tensor {
        dtype: DT_STRING
        tensor_shape {
          dim {
            size: 17
          }
        }
        string_val: "estimator_global_step/.ATTRIBUTES/VARIABLE_VALUE"
        string_val: "layer_with_weights-0/bias/.ATTRIBUTES/VARIABLE_VALUE"
        string_val: "layer_with_weights-0/bias/.OPTIMIZER_SLOT/optimizer/m/.ATTRIBUTES/VARIABLE_VALUE"
        string_val: "layer_with_weights-0/bias/.OPTIMIZER_SLOT/optimizer/v/.ATTRIBUTES/VARIABLE_VALUE"
        string_val: "layer_with_weights-0/kernel/.ATTRIBUTES/VARIABLE_VALUE"
        string_val: "layer_with_weights-0/kernel/.OPTIMIZER_SLOT/optimizer/m/.ATTRIBUTES/VARIABLE_VALUE"
        string_val: "layer_with_weights-0/kernel/.OPTIMIZER_SLOT/optimizer/v/.ATTRIBUTES/VARIABLE_VALUE"
        string_val: "layer_with_weights-1/bias/.ATTRIBUTES/VARIABLE_VALUE"
        string_val: "layer_with_weights-1/bias/.OPTIMIZER_SLOT/optimizer/m/.ATTRIBUTES/VARIABLE_VALUE"
        string_val: "layer_with_weights-1/bias/.OPTIMIZER_SLOT/optimizer/v/.ATTRIBUTES/VARIABLE_VALUE"
        string_val: "layer_with_weights-1/kernel/.ATTRIBUTES/VARIABLE_VALUE"
        string_val: "layer_with_weights-1/kernel/.OPTIMIZER_SLOT/optimizer/m/.ATTRIBUTES/VARIABLE_VALUE"
        string_val: "layer_with_weights-1/kernel/.OPTIMIZER_SLOT/optimizer/v/.ATTRIBUTES/VARIABLE_VALUE"
        string_val: "optimizer/beta_1/.ATTRIBUTES/VARIABLE_VALUE"
        string_val: "optimizer/beta_2/.ATTRIBUTES/VARIABLE_VALUE"
        string_val: "optimizer/decay/.ATTRIBUTES/VARIABLE_VALUE"
        string_val: "optimizer/learning_rate/.ATTRIBUTES/VARIABLE_VALUE"
      }
    }
  }
}
node {
  name: "save/RestoreV2/shape_and_slices"
  op: "Const"
  device: "/device:CPU:0"
  attr {
    key: "_output_shapes"
    value {
      list {
        shape {
          dim {
            size: 17
          }
        }
      }
    }
  }
  attr {
    key: "dtype"
    value {
      type: DT_STRING
    }
  }
  attr {
    key: "value"
    value {
      tensor {
        dtype: DT_STRING
        tensor_shape {
          dim {
            size: 17
          }
        }
        string_val: ""
        string_val: ""
        string_val: ""
        string_val: ""
        string_val: ""
        string_val: ""
        string_val: ""
        string_val: ""
        string_val: ""
        string_val: ""
        string_val: ""
        string_val: ""
        string_val: ""
        string_val: ""
        string_val: ""
        string_val: ""
        string_val: ""
      }
    }
  }
}
node {
  name: "save/RestoreV2"
  op: "RestoreV2"
  input: "save/Const"
  input: "save/RestoreV2/tensor_names"
  input: "save/RestoreV2/shape_and_slices"
  device: "/device:CPU:0"
  attr {
    key: "_output_shapes"
    value {
      list {
        shape {
          unknown_rank: true
        }
        shape {
          unknown_rank: true
        }
        shape {
          unknown_rank: true
        }
        shape {
          unknown_rank: true
        }
        shape {
          unknown_rank: true
        }
        shape {
          unknown_rank: true
        }
        shape {
          unknown_rank: true
        }
        shape {
          unknown_rank: true
        }
        shape {
          unknown_rank: true
        }
        shape {
          unknown_rank: true
        }
        shape {
          unknown_rank: true
        }
        shape {
          unknown_rank: true
        }
        shape {
          unknown_rank: true
        }
        shape {
          unknown_rank: true
        }
        shape {
          unknown_rank: true
        }
        shape {
          unknown_rank: true
        }
        shape {
          unknown_rank: true
        }
      }
    }
  }
  attr {
    key: "dtypes"
    value {
      list {
        type: DT_INT64
        type: DT_FLOAT
        type: DT_FLOAT
        type: DT_FLOAT
        type: DT_FLOAT
        type: DT_FLOAT
        type: DT_FLOAT
        type: DT_FLOAT
        type: DT_FLOAT
        type: DT_FLOAT
        type: DT_FLOAT
        type: DT_FLOAT
        type: DT_FLOAT
        type: DT_FLOAT
        type: DT_FLOAT
        type: DT_FLOAT
        type: DT_FLOAT
      }
    }
  }
}
node {
  name: "save/Identity_1"
  op: "Identity"
  input: "save/RestoreV2"
  attr {
    key: "T"
    value {
      type: DT_INT64
    }
  }
  attr {
    key: "_output_shapes"
    value {
      list {
        shape {
          unknown_rank: true
        }
      }
    }
  }
}
node {
  name: "save/AssignVariableOp"
  op: "AssignVariableOp"
  input: "global_step"
  input: "save/Identity_1"
  attr {
    key: "dtype"
    value {
      type: DT_INT64
    }
  }
}
node {
  name: "save/Identity_2"
  op: "Identity"
  input: "save/RestoreV2:1"
  attr {
    key: "T"
    value {
      type: DT_FLOAT
    }
  }
  attr {
    key: "_output_shapes"
    value {
      list {
        shape {
          unknown_rank: true
        }
      }
    }
  }
}
node {
  name: "save/AssignVariableOp_1"
  op: "AssignVariableOp"
  input: "dense_4/bias"
  input: "save/Identity_2"
  attr {
    key: "dtype"
    value {
      type: DT_FLOAT
    }
  }
}
node {
  name: "save/Identity_3"
  op: "Identity"
  input: "save/RestoreV2:2"
  attr {
    key: "T"
    value {
      type: DT_FLOAT
    }
  }
  attr {
    key: "_output_shapes"
    value {
      list {
        shape {
          unknown_rank: true
        }
      }
    }
  }
}
node {
  name: "save/AssignVariableOp_2"
  op: "AssignVariableOp"
  input: "training/Adam/dense_4/bias/m"
  input: "save/Identity_3"
  attr {
    key: "dtype"
    value {
      type: DT_FLOAT
    }
  }
}
node {
  name: "save/Identity_4"
  op: "Identity"
  input: "save/RestoreV2:3"
  attr {
    key: "T"
    value {
      type: DT_FLOAT
    }
  }
  attr {
    key: "_output_shapes"
    value {
      list {
        shape {
          unknown_rank: true
        }
      }
    }
  }
}
node {
  name: "save/AssignVariableOp_3"
  op: "AssignVariableOp"
  input: "training/Adam/dense_4/bias/v"
  input: "save/Identity_4"
  attr {
    key: "dtype"
    value {
      type: DT_FLOAT
    }
  }
}
node {
  name: "save/Identity_5"
  op: "Identity"
  input: "save/RestoreV2:4"
  attr {
    key: "T"
    value {
      type: DT_FLOAT
    }
  }
  attr {
    key: "_output_shapes"
    value {
      list {
        shape {
          unknown_rank: true
        }
      }
    }
  }
}
node {
  name: "save/AssignVariableOp_4"
  op: "AssignVariableOp"
  input: "dense_4/kernel"
  input: "save/Identity_5"
  attr {
    key: "dtype"
    value {
      type: DT_FLOAT
    }
  }
}
node {
  name: "save/Identity_6"
  op: "Identity"
  input: "save/RestoreV2:5"
  attr {
    key: "T"
    value {
      type: DT_FLOAT
    }
  }
  attr {
    key: "_output_shapes"
    value {
      list {
        shape {
          unknown_rank: true
        }
      }
    }
  }
}
node {
  name: "save/AssignVariableOp_5"
  op: "AssignVariableOp"
  input: "training/Adam/dense_4/kernel/m"
  input: "save/Identity_6"
  attr {
    key: "dtype"
    value {
      type: DT_FLOAT
    }
  }
}
node {
  name: "save/Identity_7"
  op: "Identity"
  input: "save/RestoreV2:6"
  attr {
    key: "T"
    value {
      type: DT_FLOAT
    }
  }
  attr {
    key: "_output_shapes"
    value {
      list {
        shape {
          unknown_rank: true
        }
      }
    }
  }
}
node {
  name: "save/AssignVariableOp_6"
  op: "AssignVariableOp"
  input: "training/Adam/dense_4/kernel/v"
  input: "save/Identity_7"
  attr {
    key: "dtype"
    value {
      type: DT_FLOAT
    }
  }
}
node {
  name: "save/Identity_8"
  op: "Identity"
  input: "save/RestoreV2:7"
  attr {
    key: "T"
    value {
      type: DT_FLOAT
    }
  }
  attr {
    key: "_output_shapes"
    value {
      list {
        shape {
          unknown_rank: true
        }
      }
    }
  }
}
node {
  name: "save/AssignVariableOp_7"
  op: "AssignVariableOp"
  input: "dense_5/bias"
  input: "save/Identity_8"
  attr {
    key: "dtype"
    value {
      type: DT_FLOAT
    }
  }
}
node {
  name: "save/Identity_9"
  op: "Identity"
  input: "save/RestoreV2:8"
  attr {
    key: "T"
    value {
      type: DT_FLOAT
    }
  }
  attr {
    key: "_output_shapes"
    value {
      list {
        shape {
          unknown_rank: true
        }
      }
    }
  }
}
node {
  name: "save/AssignVariableOp_8"
  op: "AssignVariableOp"
  input: "training/Adam/dense_5/bias/m"
  input: "save/Identity_9"
  attr {
    key: "dtype"
    value {
      type: DT_FLOAT
    }
  }
}
node {
  name: "save/Identity_10"
  op: "Identity"
  input: "save/RestoreV2:9"
  attr {
    key: "T"
    value {
      type: DT_FLOAT
    }
  }
  attr {
    key: "_output_shapes"
    value {
      list {
        shape {
          unknown_rank: true
        }
      }
    }
  }
}
node {
  name: "save/AssignVariableOp_9"
  op: "AssignVariableOp"
  input: "training/Adam/dense_5/bias/v"
  input: "save/Identity_10"
  attr {
    key: "dtype"
    value {
      type: DT_FLOAT
    }
  }
}
node {
  name: "save/Identity_11"
  op: "Identity"
  input: "save/RestoreV2:10"
  attr {
    key: "T"
    value {
      type: DT_FLOAT
    }
  }
  attr {
    key: "_output_shapes"
    value {
      list {
        shape {
          unknown_rank: true
        }
      }
    }
  }
}
node {
  name: "save/AssignVariableOp_10"
  op: "AssignVariableOp"
  input: "dense_5/kernel"
  input: "save/Identity_11"
  attr {
    key: "dtype"
    value {
      type: DT_FLOAT
    }
  }
}
node {
  name: "save/Identity_12"
  op: "Identity"
  input: "save/RestoreV2:11"
  attr {
    key: "T"
    value {
      type: DT_FLOAT
    }
  }
  attr {
    key: "_output_shapes"
    value {
      list {
        shape {
          unknown_rank: true
        }
      }
    }
  }
}
node {
  name: "save/AssignVariableOp_11"
  op: "AssignVariableOp"
  input: "training/Adam/dense_5/kernel/m"
  input: "save/Identity_12"
  attr {
    key: "dtype"
    value {
      type: DT_FLOAT
    }
  }
}
node {
  name: "save/Identity_13"
  op: "Identity"
  input: "save/RestoreV2:12"
  attr {
    key: "T"
    value {
      type: DT_FLOAT
    }
  }
  attr {
    key: "_output_shapes"
    value {
      list {
        shape {
          unknown_rank: true
        }
      }
    }
  }
}
node {
  name: "save/AssignVariableOp_12"
  op: "AssignVariableOp"
  input: "training/Adam/dense_5/kernel/v"
  input: "save/Identity_13"
  attr {
    key: "dtype"
    value {
      type: DT_FLOAT
    }
  }
}
node {
  name: "save/Identity_14"
  op: "Identity"
  input: "save/RestoreV2:13"
  attr {
    key: "T"
    value {
      type: DT_FLOAT
    }
  }
  attr {
    key: "_output_shapes"
    value {
      list {
        shape {
          unknown_rank: true
        }
      }
    }
  }
}
node {
  name: "save/AssignVariableOp_13"
  op: "AssignVariableOp"
  input: "training/Adam/beta_1"
  input: "save/Identity_14"
  attr {
    key: "dtype"
    value {
      type: DT_FLOAT
    }
  }
}
node {
  name: "save/Identity_15"
  op: "Identity"
  input: "save/RestoreV2:14"
  attr {
    key: "T"
    value {
      type: DT_FLOAT
    }
  }
  attr {
    key: "_output_shapes"
    value {
      list {
        shape {
          unknown_rank: true
        }
      }
    }
  }
}
node {
  name: "save/AssignVariableOp_14"
  op: "AssignVariableOp"
  input: "training/Adam/beta_2"
  input: "save/Identity_15"
  attr {
    key: "dtype"
    value {
      type: DT_FLOAT
    }
  }
}
node {
  name: "save/Identity_16"
  op: "Identity"
  input: "save/RestoreV2:15"
  attr {
    key: "T"
    value {
      type: DT_FLOAT
    }
  }
  attr {
    key: "_output_shapes"
    value {
      list {
        shape {
          unknown_rank: true
        }
      }
    }
  }
}
node {
  name: "save/AssignVariableOp_15"
  op: "AssignVariableOp"
  input: "training/Adam/decay"
  input: "save/Identity_16"
  attr {
    key: "dtype"
    value {
      type: DT_FLOAT
    }
  }
}
node {
  name: "save/Identity_17"
  op: "Identity"
  input: "save/RestoreV2:16"
  attr {
    key: "T"
    value {
      type: DT_FLOAT
    }
  }
  attr {
    key: "_output_shapes"
    value {
      list {
        shape {
          unknown_rank: true
        }
      }
    }
  }
}
node {
  name: "save/AssignVariableOp_16"
  op: "AssignVariableOp"
  input: "training/Adam/learning_rate"
  input: "save/Identity_17"
  attr {
    key: "dtype"
    value {
      type: DT_FLOAT
    }
  }
}
node {
  name: "save/restore_shard"
…
        tensor_shape {
        }
        int_val: 0
      }
    }
  }
}
node {
  name: "report_uninitialized_variables/boolean_mask/GatherV2"
  op: "GatherV2"
  input: "report_uninitialized_variables/boolean_mask/Reshape"
  input: "report_uninitialized_variables/boolean_mask/Squeeze"
  input: "report_uninitialized_variables/boolean_mask/GatherV2/axis"
  device: "/device:CPU:0"
  attr {
    key: "Taxis"
    value {
      type: DT_INT32
    }
  }
  attr {
    key: "Tindices"
    value {
      type: DT_INT64
    }
  }
  attr {
    key: "Tparams"
    value {
      type: DT_STRING
    }
  }
  attr {
    key: "_output_shapes"
    value {
      list {
        shape {
          dim {
            size: -1
          }
        }
      }
    }
  }
  attr {
    key: "batch_dims"
    value {
      i: 0
    }
  }
}
node {
  name: "report_uninitialized_resources/Const"
  op: "Const"
  device: "/device:CPU:0"
  attr {
    key: "_output_shapes"
    value {
      list {
        shape {
          dim {
          }
        }
      }
    }
  }
  attr {
    key: "dtype"
    value {
      type: DT_STRING
    }
  }
  attr {
    key: "value"
    value {
      tensor {
        dtype: DT_STRING
        tensor_shape {
          dim {
          }
        }
      }
    }
  }
}
node {
  name: "concat/axis"
  op: "Const"
  attr {
    key: "_output_shapes"
    value {
      list {
        shape {
        }
      }
    }
  }
  attr {
    key: "dtype"
    value {
      type: DT_INT32
    }
  }
  attr {
    key: "value"
    value {
      tensor {
        dtype: DT_INT32
        tensor_shape {
        }
        int_val: 0
      }
    }
  }
}
node {
  name: "concat"
  op: "ConcatV2"
  input: "report_uninitialized_variables/boolean_mask/GatherV2"
  input: "report_uninitialized_resources/Const"
  input: "concat/axis"
  attr {
    key: "N"
    value {
      i: 2
    }
  }
  attr {
    key: "T"
    value {
      type: DT_STRING
    }
  }
  attr {
    key: "Tidx"
    value {
      type: DT_INT32
    }
  }
  attr {
    key: "_output_shapes"
    value {
      list {
        shape {
          dim {
            size: -1
          }
        }
      }
    }
  }
}
node {
  name: "report_uninitialized_variables_1/VarIsInitializedOp"
  op: "VarIsInitializedOp"
  input: "global_step"
  attr {
    key: "_output_shapes"
    value {
      list {
        shape {
        }
      }
    }
  }
}
node {
  name: "report_uninitialized_variables_1/VarIsInitializedOp_1"
  op: "VarIsInitializedOp"
  input: "dense_4/kernel"
  attr {
    key: "_output_shapes"
    value {
      list {
        shape {
        }
      }
    }
  }
}
node {
  name: "report_uninitialized_variables_1/VarIsInitializedOp_2"
  op: "VarIsInitializedOp"
  input: "dense_4/bias"
  attr {
    key: "_output_shapes"
    value {
      list {
        shape {
        }
      }
    }
  }
}
node {
  name: "report_uninitialized_variables_1/VarIsInitializedOp_3"
  op: "VarIsInitializedOp"
  input: "dense_5/kernel"
  attr {
    key: "_output_shapes"
    value {
      list {
        shape {
        }
      }
    }
  }
}
node {
  name: "report_uninitialized_variables_1/VarIsInitializedOp_4"
  op: "VarIsInitializedOp"
  input: "dense_5/bias"
  attr {
    key: "_output_shapes"
    value {
      list {
        shape {
        }
      }
    }
  }
}
node {
  name: "report_uninitialized_variables_1/VarIsInitializedOp_5"
  op: "VarIsInitializedOp"
  input: "training/Adam/beta_1"
  attr {
    key: "_output_shapes"
    value {
      list {
        shape {
        }
      }
    }
  }
}
node {
  name: "report_uninitialized_variables_1/VarIsInitializedOp_6"
  op: "VarIsInitializedOp"
  input: "training/Adam/beta_2"
  attr {
    key: "_output_shapes"
    value {
      list {
        shape {
        }
      }
    }
  }
}
node {
  name: "report_uninitialized_variables_1/VarIsInitializedOp_7"
  op: "VarIsInitializedOp"
  input: "training/Adam/decay"
  attr {
    key: "_output_shapes"
    value {
      list {
        shape {
        }
      }
    }
  }
}
node {
  name: "report_uninitialized_variables_1/VarIsInitializedOp_8"
  op: "VarIsInitializedOp"
  input: "training/Adam/learning_rate"
  attr {
    key: "_output_shapes"
    value {
      list {
        shape {
        }
      }
    }
  }
}
node {
  name: "report_uninitialized_variables_1/VarIsInitializedOp_9"
  op: "VarIsInitializedOp"
  input: "training/Adam/dense_4/kernel/m"
  attr {
    key: "_output_shapes"
    value {
      list {
        shape {
        }
      }
    }
  }
}
node {
  name: "report_uninitialized_variables_1/VarIsInitializedOp_10"
  op: "VarIsInitializedOp"
  input: "training/Adam/dense_4/bias/m"
  attr {
    key: "_output_shapes"
    value {
      list {
        shape {
        }
      }
    }
  }
}
node {
  name: "report_uninitialized_variables_1/VarIsInitializedOp_11"
  op: "VarIsInitializedOp"
  input: "training/Adam/dense_5/kernel/m"
  attr {
    key: "_output_shapes"
    value {
      list {
        shape {
        }
      }
    }
  }
}
node {
  name: "report_uninitialized_variables_1/VarIsInitializedOp_12"
  op: "VarIsInitializedOp"
  input: "training/Adam/dense_5/bias/m"
  attr {
    key: "_output_shapes"
    value {
      list {
        shape {
        }
      }
    }
  }
}
node {
  name: "report_uninitialized_variables_1/VarIsInitializedOp_13"
  op: "VarIsInitializedOp"
  input: "training/Adam/dense_4/kernel/v"
  attr {
    key: "_output_shapes"
    value {
      list {
        shape {
        }
      }
    }
  }
}
node {
  name: "report_uninitialized_variables_1/VarIsInitializedOp_14"
  op: "VarIsInitializedOp"
  input: "training/Adam/dense_4/bias/v"
  attr {
    key: "_output_shapes"
    value {
      list {
        shape {
        }
      }
    }
  }
}
node {
  name: "report_uninitialized_variables_1/VarIsInitializedOp_15"
  op: "VarIsInitializedOp"
  input: "training/Adam/dense_5/kernel/v"
  attr {
    key: "_output_shapes"
    value {
      list {
        shape {
        }
      }
    }
  }
}
node {
  name: "report_uninitialized_variables_1/VarIsInitializedOp_16"
  op: "VarIsInitializedOp"
  input: "training/Adam/dense_5/bias/v"
  attr {
    key: "_output_shapes"
    value {
      list {
        shape {
        }
      }
    }
  }
}
node {
  name: "report_uninitialized_variables_1/stack"
  op: "Pack"
  input: "report_uninitialized_variables_1/VarIsInitializedOp"
  input: "report_uninitialized_variables_1/VarIsInitializedOp_1"
  input: "report_uninitialized_variables_1/VarIsInitializedOp_2"
  input: "report_uninitialized_variables_1/VarIsInitializedOp_3"
  input: "report_uninitialized_variables_1/VarIsInitializedOp_4"
  input: "report_uninitialized_variables_1/VarIsInitializedOp_5"
  input: "report_uninitialized_variables_1/VarIsInitializedOp_6"
  input: "report_uninitialized_variables_1/VarIsInitializedOp_7"
  input: "report_uninitialized_variables_1/VarIsInitializedOp_8"
  input: "report_uninitialized_variables_1/VarIsInitializedOp_9"
  input: "report_uninitialized_variables_1/VarIsInitializedOp_10"
  input: "report_uninitialized_variables_1/VarIsInitializedOp_11"
  input: "report_uninitialized_variables_1/VarIsInitializedOp_12"
  input: "report_uninitialized_variables_1/VarIsInitializedOp_13"
  input: "report_uninitialized_variables_1/VarIsInitializedOp_14"
  input: "report_uninitialized_variables_1/VarIsInitializedOp_15"
  input: "report_uninitialized_variables_1/VarIsInitializedOp_16"
  device: "/device:CPU:0"
  attr {
    key: "N"
    value {
      i: 17
    }
  }
  attr {
    key: "T"
    value {
      type: DT_BOOL
    }
  }
  attr {
    key: "_output_shapes"
    value {
      list {
        shape {
          dim {
            size: 17
          }
        }
      }
    }
  }
  attr {
    key: "axis"
    value {
      i: 0
    }
  }
}
node {
  name: "report_uninitialized_variables_1/LogicalNot"
  op: "LogicalNot"
  input: "report_uninitialized_variables_1/stack"
  device: "/device:CPU:0"
  attr {
    key: "_output_shapes"
    value {
      list {
        shape {
          dim {
            size: 17
          }
        }
      }
    }
  }
}
node {
  name: "report_uninitialized_variables_1/Const"
  op: "Const"
  device: "/device:CPU:0"
  attr {
    key: "_output_shapes"
    value {
      list {
        shape {
          dim {
            size: 17
          }
        }
      }
    }
  }
  attr {
    key: "dtype"
    value {
      type: DT_STRING
    }
  }
  attr {
    key: "value"
    value {
      tensor {
        dtype: DT_STRING
        tensor_shape {
          dim {
            size: 17
          }
        }
        string_val: "global_step"
        string_val: "dense_4/kernel"
        string_val: "dense_4/bias"
        string_val: "dense_5/kernel"
        string_val: "dense_5/bias"
        string_val: "training/Adam/beta_1"
        string_val: "training/Adam/beta_2"
        string_val: "training/Adam/decay"
        string_val: "training/Adam/learning_rate"
        string_val: "training/Adam/dense_4/kernel/m"
        string_val: "training/Adam/dense_4/bias/m"
        string_val: "training/Adam/dense_5/kernel/m"
        string_val: "training/Adam/dense_5/bias/m"
        string_val: "training/Adam/dense_4/kernel/v"
        string_val: "training/Adam/dense_4/bias/v"
        string_val: "training/Adam/dense_5/kernel/v"
        string_val: "training/Adam/dense_5/bias/v"
      }
    }
  }
}
node {
  name: "report_uninitialized_variables_1/boolean_mask/Shape"
  op: "Const"
  device: "/device:CPU:0"
  attr {
    key: "_output_shapes"
    value {
      list {
        shape {
          dim {
            size: 1
          }
        }
      }
    }
  }
  attr {
    key: "dtype"
    value {
      type: DT_INT32
    }
  }
  attr {
    key: "value"
    value {
      tensor {
        dtype: DT_INT32
        tensor_shape {
          dim {
            size: 1
          }
        }
        int_val: 17
      }
    }
  }
}
node {
  name: "report_uninitialized_variables_1/boolean_mask/strided_slice/stack"
  op: "Const"
  device: "/device:CPU:0"
  attr {
    key: "_output_shapes"
    value {
      list {
        shape {
          dim {
            size: 1
          }
        }
      }
    }
  }
  attr {
    key: "dtype"
    value {
      type: DT_INT32
    }
  }
  attr {
    key: "value"
    value {
      tensor {
        dtype: DT_INT32
        tensor_shape {
          dim {
            size: 1
          }
        }
        int_val: 0
      }
    }
  }
}
node {
  name: "report_uninitialized_variables_1/boolean_mask/strided_slice/stack_1"
  op: "Const"
  device: "/device:CPU:0"
  attr {
    key: "_output_shapes"
    value {
      list {
        shape {
          dim {
            size: 1
          }
        }
      }
    }
  }
  attr {
    key: "dtype"
    value {
      type: DT_INT32
    }
  }
  attr {
    key: "value"
    value {
      tensor {
        dtype: DT_INT32
        tensor_shape {
          dim {
            size: 1
          }
        }
        int_val: 1
      }
    }
  }
}
node {
  name: "report_uninitialized_variables_1/boolean_mask/strided_slice/stack_2"
  op: "Const"
  device: "/device:CPU:0"
  attr {
    key: "_output_shapes"
    value {
      list {
        shape {
          dim {
            size: 1
          }
        }
      }
    }
  }
  attr {
    key: "dtype"
    value {
      type: DT_INT32
    }
  }
  attr {
    key: "value"
    value {
      tensor {
        dtype: DT_INT32
        tensor_shape {
          dim {
            size: 1
          }
        }
        int_val: 1
      }
    }
  }
}
node {
  name: "report_uninitialized_variables_1/boolean_mask/strided_slice"
  op: "StridedSlice"
  input: "report_uninitialized_variables_1/boolean_mask/Shape"
  input: "report_uninitialized_variables_1/boolean_mask/strided_slice/stack"
  input: "report_uninitialized_variables_1/boolean_mask/strided_slice/stack_1"
  input: "report_uninitialized_variables_1/boolean_mask/strided_slice/stack_2"
  device: "/device:CPU:0"
  attr {
    key: "Index"
    value {
      type: DT_INT32
    }
  }
  attr {
    key: "T"
    value {
      type: DT_INT32
    }
  }
  attr {
    key: "_output_shapes"
    value {
      list {
        shape {
          dim {
            size: 1
          }
        }
      }
    }
  }
  attr {
    key: "begin_mask"
    value {
      i: 0
    }
  }
  attr {
    key: "ellipsis_mask"
    value {
      i: 0
    }
  }
  attr {
    key: "end_mask"
    value {
      i: 0
    }
  }
  attr {
    key: "new_axis_mask"
    value {
      i: 0
    }
  }
  attr {
    key: "shrink_axis_mask"
    value {
      i: 0
    }
  }
}
node {
  name: "report_uninitialized_variables_1/boolean_mask/Prod/reduction_indices"
  op: "Const"
  device: "/device:CPU:0"
  attr {
    key: "_output_shapes"
    value {
      list {
        shape {
          dim {
            size: 1
          }
        }
      }
    }
  }
  attr {
    key: "dtype"
    value {
      type: DT_INT32
    }
  }
  attr {
    key: "value"
    value {
      tensor {
        dtype: DT_INT32
        tensor_shape {
          dim {
            size: 1
          }
        }
        int_val: 0
      }
    }
  }
}
node {
  name: "report_uninitialized_variables_1/boolean_mask/Prod"
  op: "Prod"
  input: "report_uninitialized_variables_1/boolean_mask/strided_slice"
  input: "report_uninitialized_variables_1/boolean_mask/Prod/reduction_indices"
  device: "/device:CPU:0"
  attr {
    key: "T"
    value {
      type: DT_INT32
    }
  }
  attr {
    key: "Tidx"
    value {
      type: DT_INT32
    }
  }
  attr {
    key: "_output_shapes"
    value {
      list {
        shape {
        }
      }
    }
  }
  attr {
    key: "keep_dims"
    value {
      b: false
    }
  }
}
node {
  name: "report_uninitialized_variables_1/boolean_mask/Shape_1"
  op: "Const"
  device: "/device:CPU:0"
  attr {
    key: "_output_shapes"
    value {
      list {
        shape {
          dim {
            size: 1
          }
        }
      }
    }
  }
  attr {
    key: "dtype"
    value {
      type: DT_INT32
    }
  }
  attr {
    key: "value"
    value {
      tensor {
        dtype: DT_INT32
        tensor_shape {
          dim {
            size: 1
          }
        }
        int_val: 17
      }
    }
  }
}
node {
  name: "report_uninitialized_variables_1/boolean_mask/strided_slice_1/stack"
  op: "Const"
  device: "/device:CPU:0"
  attr {
    key: "_output_shapes"
    value {
      list {
        shape {
          dim {
            size: 1
          }
        }
      }
    }
  }
  attr {
    key: "dtype"
    value {
      type: DT_INT32
    }
  }
  attr {
    key: "value"
    value {
      tensor {
        dtype: DT_INT32
        tensor_shape {
          dim {
            size: 1
          }
        }
        int_val: 0
      }
    }
  }
}
node {
  name: "report_uninitialized_variables_1/boolean_mask/strided_slice_1/stack_1"
  op: "Const"
  device: "/device:CPU:0"
  attr {
    key: "_output_shapes"
    value {
      list {
        shape {
          dim {
            size: 1
          }
        }
      }
    }
  }
  attr {
    key: "dtype"
    value {
      type: DT_INT32
    }
  }
  attr {
    key: "value"
    value {
      tensor {
        dtype: DT_INT32
        tensor_shape {
          dim {
            size: 1
          }
        }
        int_val: 0
      }
    }
  }
}
node {
  name: "report_uninitialized_variables_1/boolean_mask/strided_slice_1/stack_2"
  op: "Const"
  device: "/device:CPU:0"
  attr {
    key: "_output_shapes"
    value {
      list {
        shape {
          dim {
            size: 1
          }
        }
      }
    }
  }
  attr {
    key: "dtype"
    value {
      type: DT_INT32
    }
  }
  attr {
    key: "value"
    value {
      tensor {
        dtype: DT_INT32
        tensor_shape {
          dim {
            size: 1
          }
        }
        int_val: 1
      }
    }
  }
}
node {
  name: "report_uninitialized_variables_1/boolean_mask/strided_slice_1"
  op: "StridedSlice"
  input: "report_uninitialized_variables_1/boolean_mask/Shape_1"
  input: "report_uninitialized_variables_1/boolean_mask/strided_slice_1/stack"
  input: "report_uninitialized_variables_1/boolean_mask/strided_slice_1/stack_1"
  input: "report_uninitialized_variables_1/boolean_mask/strided_slice_1/stack_2"
  device: "/device:CPU:0"
  attr {
    key: "Index"
    value {
      type: DT_INT32
    }
  }
  attr {
    key: "T"
    value {
      type: DT_INT32
    }
  }
  attr {
    key: "_output_shapes"
    value {
      list {
        shape {
          dim {
          }
        }
      }
    }
  }
  attr {
    key: "begin_mask"
    value {
      i: 1
    }
  }
  attr {
    key: "ellipsis_mask"
    value {
      i: 0
    }
  }
  attr {
    key: "end_mask"
    value {
      i: 0
    }
  }
  attr {
    key: "new_axis_mask"
    value {
      i: 0
    }
  }
  attr {
    key: "shrink_axis_mask"
    value {
      i: 0
    }
  }
}
node {
  name: "report_uninitialized_variables_1/boolean_mask/Shape_2"
  op: "Const"
  device: "/device:CPU:0"
  attr {
    key: "_output_shapes"
    value {
      list {
        shape {
          dim {
            size: 1
          }
        }
      }
    }
  }
  attr {
    key: "dtype"
    value {
      type: DT_INT32
    }
  }
  attr {
    key: "value"
    value {
      tensor {
        dtype: DT_INT32
        tensor_shape {
          dim {
            size: 1
          }
        }
        int_val: 17
      }
    }
  }
}
node {
  name: "report_uninitialized_variables_1/boolean_mask/strided_slice_2/stack"
  op: "Const"
  device: "/device:CPU:0"
  attr {
    key: "_output_shapes"
    value {
      list {
        shape {
          dim {
            size: 1
          }
        }
      }
    }
  }
  attr {
    key: "dtype"
    value {
      type: DT_INT32
    }
  }
  attr {
    key: "value"
    value {
      tensor {
        dtype: DT_INT32
        tensor_shape {
          dim {
            size: 1
          }
        }
        int_val: 1
      }
    }
  }
}
node {
  name: "report_uninitialized_variables_1/boolean_mask/strided_slice_2/stack_1"
  op: "Const"
  device: "/device:CPU:0"
  attr {
    key: "_output_shapes"
    value {
      list {
        shape {
          dim {
            size: 1
          }
        }
      }
    }
  }
  attr {
    key: "dtype"
    value {
      type: DT_INT32
    }
  }
  attr {
    key: "value"
    value {
      tensor {
        dtype: DT_INT32
        tensor_shape {
          dim {
            size: 1
          }
        }
        int_val: 0
      }
    }
  }
}
node {
  name: "report_uninitialized_variables_1/boolean_mask/strided_slice_2/stack_2"
  op: "Const"
  device: "/device:CPU:0"
  attr {
    key: "_output_shapes"
    value {
      list {
        shape {
          dim {
            size: 1
          }
        }
      }
    }
  }
  attr {
    key: "dtype"
    value {
      type: DT_INT32
    }
  }
  attr {
    key: "value"
    value {
      tensor {
        dtype: DT_INT32
        tensor_shape {
          dim {
            size: 1
          }
        }
        int_val: 1
      }
    }
  }
}
node {
  name: "report_uninitialized_variables_1/boolean_mask/strided_slice_2"
  op: "StridedSlice"
  input: "report_uninitialized_variables_1/boolean_mask/Shape_2"
  input: "report_uninitialized_variables_1/boolean_mask/strided_slice_2/stack"
  input: "report_uninitialized_variables_1/boolean_mask/strided_slice_2/stack_1"
  input: "report_uninitialized_variables_1/boolean_mask/strided_slice_2/stack_2"
  device: "/device:CPU:0"
  attr {
    key: "Index"
    value {
      type: DT_INT32
    }
  }
  attr {
    key: "T"
    value {
      type: DT_INT32
    }
  }
  attr {
    key: "_output_shapes"
    value {
      list {
        shape {
          dim {
          }
        }
      }
    }
  }
  attr {
    key: "begin_mask"
    value {
      i: 0
    }
  }
  attr {
    key: "ellipsis_mask"
    value {
      i: 0
    }
  }
  attr {
    key: "end_mask"
    value {
      i: 1
    }
  }
  attr {
    key: "new_axis_mask"
    value {
      i: 0
    }
  }
  attr {
    key: "shrink_axis_mask"
    value {
      i: 0
    }
  }
}
node {
  name: "report_uninitialized_variables_1/boolean_mask/concat/values_1"
  op: "Pack"
  input: "report_uninitialized_variables_1/boolean_mask/Prod"
  device: "/device:CPU:0"
  attr {
    key: "N"
    value {
      i: 1
    }
  }
  attr {
    key: "T"
    value {
      type: DT_INT32
    }
  }
  attr {
    key: "_output_shapes"
    value {
      list {
        shape {
          dim {
            size: 1
          }
        }
      }
    }
  }
  attr {
    key: "axis"
    value {
      i: 0
    }
  }
}
node {
  name: "report_uninitialized_variables_1/boolean_mask/concat/axis"
  op: "Const"
  device: "/device:CPU:0"
  attr {
    key: "_output_shapes"
    value {
      list {
        shape {
        }
      }
    }
  }
  attr {
    key: "dtype"
    value {
      type: DT_INT32
    }
  }
  attr {
    key: "value"
    value {
      tensor {
        dtype: DT_INT32
        tensor_shape {
        }
        int_val: 0
      }
    }
  }
}
node {
  name: "report_uninitialized_variables_1/boolean_mask/concat"
  op: "ConcatV2"
  input: "report_uninitialized_variables_1/boolean_mask/strided_slice_1"
  input: "report_uninitialized_variables_1/boolean_mask/concat/values_1"
  input: "report_uninitialized_variables_1/boolean_mask/strided_slice_2"
  input: "report_uninitialized_variables_1/boolean_mask/concat/axis"
  device: "/device:CPU:0"
  attr {
    key: "N"
    value {
      i: 3
    }
  }
  attr {
    key: "T"
    value {
      type: DT_INT32
    }
  }
  attr {
    key: "Tidx"
    value {
      type: DT_INT32
    }
  }
  attr {
    key: "_output_shapes"
    value {
      list {
        shape {
          dim {
            size: 1
          }
        }
      }
    }
  }
}
node {
  name: "report_uninitialized_variables_1/boolean_mask/Reshape"
  op: "Reshape"
  input: "report_uninitialized_variables_1/Const"
  input: "report_uninitialized_variables_1/boolean_mask/concat"
  device: "/device:CPU:0"
  attr {
    key: "T"
    value {
      type: DT_STRING
    }
  }
  attr {
    key: "Tshape"
    value {
      type: DT_INT32
    }
  }
  attr {
    key: "_output_shapes"
    value {
      list {
        shape {
          dim {
            size: 17
          }
        }
      }
    }
  }
}
node {
  name: "report_uninitialized_variables_1/boolean_mask/Reshape_1/shape"
  op: "Const"
  device: "/device:CPU:0"
  attr {
    key: "_output_shapes"
    value {
      list {
        shape {
          dim {
            size: 1
          }
        }
      }
    }
  }
  attr {
    key: "dtype"
    value {
      type: DT_INT32
    }
  }
  attr {
    key: "value"
    value {
      tensor {
        dtype: DT_INT32
        tensor_shape {
          dim {
            size: 1
          }
        }
        int_val: -1
      }
    }
  }
}
node {
  name: "report_uninitialized_variables_1/boolean_mask/Reshape_1"
  op: "Reshape"
  input: "report_uninitialized_variables_1/LogicalNot"
  input: "report_uninitialized_variables_1/boolean_mask/Reshape_1/shape"
  device: "/device:CPU:0"
  attr {
    key: "T"
    value {
      type: DT_BOOL
    }
  }
  attr {
    key: "Tshape"
    value {
      type: DT_INT32
    }
  }
  attr {
    key: "_output_shapes"
    value {
      list {
        shape {
          dim {
            size: 17
          }
        }
      }
    }
  }
}
node {
  name: "report_uninitialized_variables_1/boolean_mask/Where"
  op: "Where"
  input: "report_uninitialized_variables_1/boolean_mask/Reshape_1"
  device: "/device:CPU:0"
  attr {
    key: "T"
    value {
      type: DT_BOOL
    }
  }
  attr {
    key: "_output_shapes"
    value {
      list {
        shape {
          dim {
            size: -1
          }
          dim {
            size: 1
          }
        }
      }
    }
  }
}
node {
  name: "report_uninitialized_variables_1/boolean_mask/Squeeze"
  op: "Squeeze"
  input: "report_uninitialized_variables_1/boolean_mask/Where"
  device: "/device:CPU:0"
  attr {
    key: "T"
    value {
      type: DT_INT64
    }
  }
  attr {
    key: "_output_shapes"
    value {
      list {
        shape {
          dim {
            size: -1
          }
        }
      }
    }
  }
  attr {
    key: "squeeze_dims"
    value {
      list {
        i: 1
      }
    }
  }
}
node {
  name: "report_uninitialized_variables_1/boolean_mask/GatherV2/axis"
  op: "Const"
  device: "/device:CPU:0"
  attr {
    key: "_output_shapes"
    value {
      list {
        shape {
        }
      }
    }
  }
  attr {
    key: "dtype"
    value {
      type: DT_INT32
    }
  }
  attr {
    key: "value"
    value {
      tensor {
        dtype: DT_INT32
        tensor_shape {
        }
        int_val: 0
      }
    }
  }
}
node {
  name: "report_uninitialized_variables_1/boolean_mask/GatherV2"
  op: "GatherV2"
  input: "report_uninitialized_variables_1/boolean_mask/Reshape"
  input: "report_uninitialized_variables_1/boolean_mask/Squeeze"
  input: "report_uninitialized_variables_1/boolean_mask/GatherV2/axis"
  device: "/device:CPU:0"
  attr {
    key: "Taxis"
    value {
      type: DT_INT32
    }
  }
  attr {
    key: "Tindices"
    value {
      type: DT_INT64
    }
  }
  attr {
    key: "Tparams"
    value {
      type: DT_STRING
    }
  }
  attr {
    key: "_output_shapes"
    value {
      list {
        shape {
          dim {
            size: -1
          }
        }
      }
    }
  }
  attr {
    key: "batch_dims"
    value {
      i: 0
    }
  }
}
node {
  name: "report_uninitialized_resources_1/Const"
  op: "Const"
  device: "/device:CPU:0"
  attr {
    key: "_output_shapes"
    value {
      list {
        shape {
          dim {
          }
        }
      }
    }
  }
  attr {
    key: "dtype"
    value {
      type: DT_STRING
    }
  }
  attr {
    key: "value"
    value {
      tensor {
        dtype: DT_STRING
        tensor_shape {
          dim {
          }
        }
      }
    }
  }
}
node {
  name: "concat_1/axis"
  op: "Const"
  attr {
    key: "_output_shapes"
    value {
      list {
        shape {
        }
      }
    }
  }
  attr {
    key: "dtype"
    value {
      type: DT_INT32
    }
  }
  attr {
    key: "value"
    value {
      tensor {
        dtype: DT_INT32
        tensor_shape {
        }
        int_val: 0
      }
    }
  }
}
node {
  name: "concat_1"
  op: "ConcatV2"
  input: "report_uninitialized_variables_1/boolean_mask/GatherV2"
  input: "report_uninitialized_resources_1/Const"
  input: "concat_1/axis"
  attr {
    key: "N"
    value {
      i: 2
    }
  }
  attr {
    key: "T"
    value {
      type: DT_STRING
    }
  }
  attr {
    key: "Tidx"
    value {
      type: DT_INT32
    }
  }
  attr {
    key: "_output_shapes"
    value {
      list {
        shape {
          dim {
            size: -1
          }
        }
      }
    }
  }
}
node {
  name: "init_2"
  op: "NoOp"
}
node {
  name: "init_all_tables"
  op: "NoOp"
}
node {
  name: "init_3"
  op: "NoOp"
}
node {
  name: "group_deps_1"
  op: "NoOp"
  input: "^init_2"
  input: "^init_3"
  input: "^init_all_tables"
}
node {
  name: "Merge/MergeSummary"
  op: "MergeSummary"
  input: "loss_1"
  attr {
    key: "N"
    value {
      i: 1
    }
  }
  attr {
    key: "_output_shapes"
    value {
      list {
        shape {
        }
      }
    }
  }
}
library {
  function {
    signature {
      name: "global_step_cond_false_1140"
      input_arg {
        name: "placeholder"
        type: DT_RESOURCE
      }
      input_arg {
        name: "global_step_initializer_zeros_0"
        type: DT_INT64
      }
      output_arg {
        name: "global_step_initializer_zeros"
        type: DT_INT64
      }
    }
    ret {
      key: "global_step_initializer_zeros"
      value: "global_step_initializer_zeros_0"
    }
    attr {
      key: "_input_shapes"
      value {
        list {
          shape {
            unknown_rank: true
          }
          shape {
          }
        }
      }
    }
    arg_attr {
      key: 1
      value {
        attr {
          key: "_output_shapes"
          value {
            list {
              shape {
              }
            }
          }
        }
      }
    }
  }
  function {
    signature {
      name: "__inference_Dataset_map_map_fn_1204"
      input_arg {
        name: "args_0"
        type: DT_FLOAT
      }
      input_arg {
        name: "args_1"
        type: DT_FLOAT
      }
      input_arg {
        name: "args_2"
        type: DT_FLOAT
      }
      input_arg {
        name: "args_3"
        type: DT_FLOAT
      }
      input_arg {
        name: "args_4"
        type: DT_INT32
      }
      output_arg {
        name: "identity"
        type: DT_FLOAT
      }
      output_arg {
        name: "identity_1"
        type: DT_FLOAT
      }
      output_arg {
        name: "identity_2"
        type: DT_FLOAT
      }
      output_arg {
        name: "identity_3"
        type: DT_FLOAT
      }
      output_arg {
        name: "identity_4"
        type: DT_INT32
      }
    }
    node_def {
      name: "Identity"
      op: "Identity"
      input: "args_2"
      attr {
        key: "T"
        value {
          type: DT_FLOAT
        }
      }
      attr {
        key: "_output_shapes"
        value {
          list {
            shape {
              dim {
                size: -1
              }
            }
          }
        }
      }
      experimental_debug_info {
        original_node_names: "Identity"
      }
    }
    node_def {
      name: "Identity_1"
      op: "Identity"
      input: "args_3"
      attr {
        key: "T"
        value {
          type: DT_FLOAT
        }
      }
      attr {
        key: "_output_shapes"
        value {
          list {
            shape {
              dim {
                size: -1
              }
            }
          }
        }
      }
      experimental_debug_info {
        original_node_names: "Identity_1"
      }
    }
    node_def {
      name: "Identity_2"
      op: "Identity"
      input: "args_0"
      attr {
        key: "T"
        value {
          type: DT_FLOAT
        }
      }
      attr {
        key: "_output_shapes"
        value {
          list {
            shape {
              dim {
                size: -1
              }
            }
          }
        }
      }
      experimental_debug_info {
        original_node_names: "Identity_2"
      }
    }
    node_def {
      name: "Identity_3"
      op: "Identity"
      input: "args_1"
      attr {
        key: "T"
        value {
          type: DT_FLOAT
        }
      }
      attr {
        key: "_output_shapes"
        value {
          list {
            shape {
              dim {
                size: -1
              }
            }
          }
        }
      }
      experimental_debug_info {
        original_node_names: "Identity_3"
      }
    }
    node_def {
      name: "Identity_4"
      op: "Identity"
      input: "args_4"
      attr {
        key: "T"
        value {
          type: DT_INT32
        }
      }
      attr {
        key: "_output_shapes"
        value {
          list {
            shape {
              dim {
                size: -1
              }
            }
          }
        }
      }
      experimental_debug_info {
        original_node_names: "Identity_4"
      }
    }
    ret {
      key: "identity"
      value: "Identity:output:0"
    }
    ret {
      key: "identity_1"
      value: "Identity_1:output:0"
    }
    ret {
      key: "identity_2"
      value: "Identity_2:output:0"
    }
    ret {
      key: "identity_3"
      value: "Identity_3:output:0"
    }
    ret {
      key: "identity_4"
      value: "Identity_4:output:0"
    }
    attr {
      key: "_input_shapes"
      value {
        list {
          shape {
            dim {
              size: -1
            }
          }
          shape {
            dim {
              size: -1
            }
          }
          shape {
            dim {
              size: -1
            }
          }
          shape {
            dim {
              size: -1
            }
          }
          shape {
            dim {
              size: -1
            }
          }
        }
      }
    }
    attr {
      key: "_tf_data_function"
      value {
        b: true
      }
    }
    arg_attr {
      value {
        attr {
          key: "_output_shapes"
          value {
            list {
              shape {
                dim {
                  size: -1
                }
              }
            }
          }
        }
        attr {
          key: "_user_specified_name"
          value {
            s: "args_0"
          }
        }
      }
    }
    arg_attr {
      key: 1
      value {
        attr {
          key: "_output_shapes"
          value {
            list {
              shape {
                dim {
                  size: -1
                }
              }
            }
          }
        }
        attr {
          key: "_user_specified_name"
          value {
            s: "args_1"
          }
        }
      }
    }
    arg_attr {
      key: 2
      value {
        attr {
          key: "_output_shapes"
          value {
            list {
              shape {
                dim {
                  size: -1
                }
              }
            }
          }
        }
        attr {
          key: "_user_specified_name"
          value {
            s: "args_2"
          }
        }
      }
    }
    arg_attr {
      key: 3
      value {
        attr {
          key: "_output_shapes"
          value {
            list {
              shape {
                dim {
                  size: -1
                }
              }
            }
          }
        }
        attr {
          key: "_user_specified_name"
          value {
            s: "args_3"
          }
        }
      }
    }
    arg_attr {
      key: 4
      value {
        attr {
          key: "_output_shapes"
          value {
            list {
              shape {
                dim {
                  size: -1
                }
              }
            }
          }
        }
        attr {
          key: "_user_specified_name"
          value {
            s: "args_4"
          }
        }
      }
    }
  }
  function {
    signature {
      name: "global_step_cond_true_1139"
      input_arg {
        name: "read_readvariableop_global_step"
        type: DT_RESOURCE
      }
      input_arg {
        name: "placeholder"
        type: DT_INT64
      }
      output_arg {
        name: "identity"
        type: DT_INT64
      }
      is_stateful: true
    }
    node_def {
      name: "Read/ReadVariableOp"
      op: "ReadVariableOp"
      input: "read_readvariableop_global_step"
      attr {
        key: "_output_shapes"
        value {
          list {
            shape {
            }
          }
        }
      }
      attr {
        key: "dtype"
        value {
          type: DT_INT64
        }
      }
      experimental_debug_info {
        original_node_names: "Read/ReadVariableOp"
      }
    }
    node_def {
      name: "Identity"
      op: "Identity"
      input: "Read/ReadVariableOp:value:0"
      attr {
        key: "T"
        value {
          type: DT_INT64
        }
      }
      attr {
        key: "_output_shapes"
        value {
          list {
            shape {
            }
          }
        }
      }
      experimental_debug_info {
        original_node_names: "Identity"
      }
    }
    ret {
      key: "identity"
      value: "Identity:output:0"
    }
    attr {
      key: "_input_shapes"
      value {
        list {
          shape {
            unknown_rank: true
          }
          shape {
          }
        }
      }
    }
    arg_attr {
      key: 1
      value {
        attr {
          key: "_output_shapes"
          value {
            list {
              shape {
              }
            }
          }
        }
      }
    }
  }
  function {
    signature {
      name: "__inference_Dataset_map_pack_features_vector_1217"
      input_arg {
        name: "args_0"
        type: DT_FLOAT
      }
      input_arg {
        name: "args_1"
        type: DT_FLOAT
      }
      input_arg {
        name: "args_2"
        type: DT_FLOAT
      }
      input_arg {
        name: "args_3"
        type: DT_FLOAT
      }
      input_arg {
        name: "args_4"
        type: DT_INT32
      }
      output_arg {
        name: "identity"
        type: DT_FLOAT
      }
      output_arg {
        name: "identity_1"
        type: DT_INT32
      }
    }
    node_def {
      name: "stack"
      op: "Pack"
      input: "args_2"
      input: "args_3"
      input: "args_0"
      input: "args_1"
      attr {
        key: "N"
        value {
          i: 4
        }
      }
      attr {
        key: "T"
        value {
          type: DT_FLOAT
        }
      }
      attr {
        key: "_output_shapes"
        value {
          list {
            shape {
              dim {
                size: -1
              }
              dim {
                size: 4
              }
            }
          }
        }
      }
      attr {
        key: "axis"
        value {
          i: 1
        }
      }
      experimental_debug_info {
        original_node_names: "stack"
      }
    }
    node_def {
      name: "Identity"
      op: "Identity"
      input: "stack:output:0"
      attr {
        key: "T"
        value {
          type: DT_FLOAT
        }
      }
      attr {
        key: "_output_shapes"
        value {
          list {
            shape {
              dim {
                size: -1
              }
              dim {
                size: 4
              }
            }
          }
        }
      }
      experimental_debug_info {
        original_node_names: "Identity"
      }
    }
    node_def {
      name: "Identity_1"
      op: "Identity"
      input: "args_4"
      attr {
        key: "T"
        value {
          type: DT_INT32
        }
      }
      attr {
        key: "_output_shapes"
        value {
          list {
            shape {
              dim {
                size: -1
              }
            }
          }
        }
      }
      experimental_debug_info {
        original_node_names: "Identity_1"
      }
    }
    ret {
      key: "identity"
      value: "Identity:output:0"
    }
    ret {
      key: "identity_1"
      value: "Identity_1:output:0"
    }
    attr {
      key: "_input_shapes"
      value {
        list {
          shape {
            dim {
              size: -1
            }
          }
          shape {
            dim {
              size: -1
            }
          }
          shape {
            dim {
              size: -1
            }
          }
          shape {
            dim {
              size: -1
            }
          }
          shape {
            dim {
              size: -1
            }
          }
        }
      }
    }
    attr {
      key: "_tf_data_function"
      value {
        b: true
      }
    }
    arg_attr {
      value {
        attr {
          key: "_output_shapes"
          value {
            list {
              shape {
                dim {
                  size: -1
                }
              }
            }
          }
        }
        attr {
          key: "_user_specified_name"
          value {
            s: "args_0"
          }
        }
      }
    }
    arg_attr {
      key: 1
      value {
        attr {
          key: "_output_shapes"
          value {
            list {
              shape {
                dim {
                  size: -1
                }
              }
            }
          }
        }
        attr {
          key: "_user_specified_name"
          value {
            s: "args_1"
          }
        }
      }
    }
    arg_attr {
      key: 2
      value {
        attr {
          key: "_output_shapes"
          value {
            list {
              shape {
                dim {
                  size: -1
                }
              }
            }
          }
        }
        attr {
          key: "_user_specified_name"
          value {
            s: "args_2"
          }
        }
      }
    }
    arg_attr {
      key: 3
      value {
        attr {
          key: "_output_shapes"
          value {
            list {
              shape {
                dim {
                  size: -1
                }
              }
            }
          }
        }
        attr {
          key: "_user_specified_name"
          value {
            s: "args_3"
          }
        }
      }
    }
    arg_attr {
      key: 4
      value {
        attr {
          key: "_output_shapes"
          value {
            list {
              shape {
                dim {
                  size: -1
                }
              }
            }
          }
        }
        attr {
          key: "_user_specified_name"
          value {
            s: "args_4"
          }
        }
      }
    }
  }
  function {
    signature {
      name: "__inference_tf_data_experimental_parallel_interleave_filename_to_dataset_1180"
      input_arg {
        name: "args_0"
        type: DT_STRING
      }
      input_arg {
        name: "csvdataset_const"
        type: DT_FLOAT
      }
      input_arg {
        name: "csvdataset_const_1"
        type: DT_FLOAT
      }
      input_arg {
        name: "csvdataset_const_2"
        type: DT_FLOAT
      }
      input_arg {
        name: "csvdataset_const_3"
        type: DT_FLOAT
      }
      input_arg {
        name: "csvdataset_const_4"
        type: DT_INT32
      }
      output_arg {
        name: "identity"
        type: DT_VARIANT
      }
      is_stateful: true
      control_output: "CSVDataset"
    }
    node_def {
      name: "compression_type"
      op: "Const"
      attr {
        key: "_output_shapes"
        value {
          list {
            shape {
            }
          }
        }
      }
      attr {
        key: "dtype"
        value {
          type: DT_STRING
        }
      }
      attr {
        key: "value"
        value {
          tensor {
            dtype: DT_STRING
            tensor_shape {
            }
            string_val: ""
          }
        }
      }
      experimental_debug_info {
        original_node_names: "compression_type"
      }
    }
    node_def {
      name: "buffer_size"
      op: "Const"
      attr {
        key: "_output_shapes"
        value {
          list {
            shape {
            }
          }
        }
      }
      attr {
        key: "dtype"
        value {
          type: DT_INT64
        }
      }
      attr {
        key: "value"
        value {
          tensor {
            dtype: DT_INT64
            tensor_shape {
            }
            int64_val: 4194304
          }
        }
      }
      experimental_debug_info {
        original_node_names: "buffer_size"
      }
    }
    node_def {
      name: "header"
      op: "Const"
      attr {
        key: "_output_shapes"
        value {
          list {
            shape {
            }
          }
        }
      }
      attr {
        key: "dtype"
        value {
          type: DT_BOOL
        }
      }
      attr {
        key: "value"
        value {
          tensor {
            dtype: DT_BOOL
            tensor_shape {
            }
            bool_val: true
          }
        }
      }
      experimental_debug_info {
        original_node_names: "header"
      }
    }
    node_def {
      name: "field_delim"
      op: "Const"
      attr {
        key: "_output_shapes"
        value {
          list {
            shape {
            }
          }
        }
      }
      attr {
        key: "dtype"
        value {
          type: DT_STRING
        }
      }
      attr {
        key: "value"
        value {
          tensor {
            dtype: DT_STRING
            tensor_shape {
            }
            string_val: ","
          }
        }
      }
      experimental_debug_info {
        original_node_names: "field_delim"
      }
    }
    node_def {
      name: "use_quote_delim"
      op: "Const"
      attr {
        key: "_output_shapes"
        value {
          list {
            shape {
            }
          }
        }
      }
      attr {
        key: "dtype"
        value {
          type: DT_BOOL
        }
      }
      attr {
        key: "value"
        value {
          tensor {
            dtype: DT_BOOL
            tensor_shape {
            }
            bool_val: true
          }
        }
      }
      experimental_debug_info {
        original_node_names: "use_quote_delim"
      }
    }
    node_def {
      name: "na_value"
      op: "Const"
      attr {
        key: "_output_shapes"
        value {
          list {
            shape {
            }
          }
        }
      }
      attr {
        key: "dtype"
        value {
          type: DT_STRING
        }
      }
      attr {
        key: "value"
        value {
          tensor {
            dtype: DT_STRING
            tensor_shape {
            }
            string_val: ""
          }
        }
      }
      experimental_debug_info {
        original_node_names: "na_value"
      }
    }
    node_def {
      name: "select_cols"
      op: "Const"
      attr {
        key: "_output_shapes"
        value {
          list {
            shape {
              dim {
              }
            }
          }
        }
      }
      attr {
        key: "dtype"
        value {
          type: DT_INT64
        }
      }
      attr {
        key: "value"
        value {
          tensor {
            dtype: DT_INT64
            tensor_shape {
              dim {
              }
            }
          }
        }
      }
      experimental_debug_info {
        original_node_names: "select_cols"
      }
    }
    node_def {
      name: "CSVDataset"
      op: "CSVDataset"
      input: "args_0"
      input: "compression_type:output:0"
      input: "buffer_size:output:0"
      input: "header:output:0"
      input: "field_delim:output:0"
      input: "use_quote_delim:output:0"
      input: "na_value:output:0"
      input: "select_cols:output:0"
      input: "csvdataset_const"
      input: "csvdataset_const_1"
      input: "csvdataset_const_2"
      input: "csvdataset_const_3"
      input: "csvdataset_const_4"
      attr {
        key: "_output_shapes"
        value {
          list {
            shape {
            }
          }
        }
      }
      attr {
        key: "output_shapes"
        value {
          list {
            shape {
            }
            shape {
            }
            shape {
            }
            shape {
            }
            shape {
            }
          }
        }
      }
      attr {
        key: "output_types"
        value {
          list {
            type: DT_FLOAT
            type: DT_FLOAT
            type: DT_FLOAT
            type: DT_FLOAT
            type: DT_INT32
          }
        }
      }
      experimental_debug_info {
        original_node_names: "CSVDataset"
      }
    }
    node_def {
      name: "Identity"
      op: "Identity"
      input: "CSVDataset:handle:0"
      input: "^CSVDataset"
      attr {
        key: "T"
        value {
          type: DT_VARIANT
        }
      }
      attr {
        key: "_output_shapes"
        value {
          list {
            shape {
            }
          }
        }
      }
      experimental_debug_info {
        original_node_names: "Identity"
      }
    }
    ret {
      key: "identity"
      value: "Identity:output:0"
    }
    attr {
      key: "_input_shapes"
      value {
        list {
          shape {
          }
          shape {
            dim {
              size: 1
            }
          }
          shape {
            dim {
              size: 1
            }
          }
          shape {
            dim {
              size: 1
            }
          }
          shape {
            dim {
              size: 1
            }
          }
          shape {
            dim {
              size: 1
            }
          }
        }
      }
    }
    attr {
      key: "_tf_data_function"
      value {
        b: true
      }
    }
    control_ret {
      key: "CSVDataset"
      value: "CSVDataset"
    }
    arg_attr {
      value {
        attr {
          key: "_output_shapes"
          value {
            list {
              shape {
              }
            }
          }
        }
        attr {
          key: "_user_specified_name"
          value {
            s: "args_0"
          }
        }
      }
    }
    arg_attr {
      key: 1
      value {
        attr {
          key: "_output_shapes"
          value {
            list {
              shape {
                dim {
                  size: 1
                }
              }
            }
          }
        }
      }
    }
    arg_attr {
      key: 2
      value {
        attr {
          key: "_output_shapes"
          value {
            list {
              shape {
                dim {
                  size: 1
                }
              }
            }
          }
        }
      }
    }
    arg_attr {
      key: 3
      value {
        attr {
          key: "_output_shapes"
          value {
            list {
              shape {
                dim {
                  size: 1
                }
              }
            }
          }
        }
      }
    }
    arg_attr {
      key: 4
      value {
        attr {
          key: "_output_shapes"
          value {
            list {
              shape {
                dim {
                  size: 1
                }
              }
            }
          }
        }
      }
    }
    arg_attr {
      key: 5
      value {
        attr {
          key: "_output_shapes"
          value {
            list {
              shape {
                dim {
                  size: 1
                }
              }
            }
          }
        }
      }
    }
  }
}
versions {
  producer: 440
  min_consumer: 12
}
